…
WARNING: The TensorFlow contrib module will not be included in TensorFlow 2.0.
For more information, please see:
  * https://github.com/tensorflow/community/blob/master/rfcs/20180907-contrib-sunset.md
  * https://github.com/tensorflow/addons
If you depend on functionality not listed there, please file an issue.

__________________________________________________________________________________________________
Layer (type)                    Output Shape         Param #     Connected to                     
==================================================================================================
data (InputLayer)               (None, 224, 224, 3)  0                                            
__________________________________________________________________________________________________
conv1_zeropadding (ZeroPadding2 (None, 230, 230, 3)  0           data[0][0]                       
__________________________________________________________________________________________________
conv1 (Conv2D)                  (None, 112, 112, 64) 9408        conv1_zeropadding[0][0]          
__________________________________________________________________________________________________
conv1_bn (BatchNormalizationV1) (None, 112, 112, 64) 256         conv1[0][0]                      
__________________________________________________________________________________________________
conv1_scale (Scale)             (None, 112, 112, 64) 128         conv1_bn[0][0]                   
__________________________________________________________________________________________________
relu1 (Activation)              (None, 112, 112, 64) 0           conv1_scale[0][0]                
__________________________________________________________________________________________________
pool1_zeropadding (ZeroPadding2 (None, 114, 114, 64) 0           relu1[0][0]                      
__________________________________________________________________________________________________
pool1 (MaxPooling2D)            (None, 56, 56, 64)   0           pool1_zeropadding[0][0]          
__________________________________________________________________________________________________
conv2_1_x1_bn (BatchNormalizati (None, 56, 56, 64)   256         pool1[0][0]                      
__________________________________________________________________________________________________
conv2_1_x1_scale (Scale)        (None, 56, 56, 64)   128         conv2_1_x1_bn[0][0]              
__________________________________________________________________________________________________
relu2_1_x1 (Activation)         (None, 56, 56, 64)   0           conv2_1_x1_scale[0][0]           
__________________________________________________________________________________________________
conv2_1_x1 (Conv2D)             (None, 56, 56, 128)  8192        relu2_1_x1[0][0]                 
__________________________________________________________________________________________________
dropout (Dropout)               (None, 56, 56, 128)  0           conv2_1_x1[0][0]                 
__________________________________________________________________________________________________
conv2_1_x2_bn (BatchNormalizati (None, 56, 56, 128)  512         dropout[0][0]                    
__________________________________________________________________________________________________
conv2_1_x2_scale (Scale)        (None, 56, 56, 128)  256         conv2_1_x2_bn[0][0]              
__________________________________________________________________________________________________
relu2_1_x2 (Activation)         (None, 56, 56, 128)  0           conv2_1_x2_scale[0][0]           
__________________________________________________________________________________________________
conv2_1_x2_zeropadding (ZeroPad (None, 58, 58, 128)  0           relu2_1_x2[0][0]                 
__________________________________________________________________________________________________
conv2_1_x2 (Conv2D)             (None, 56, 56, 32)   36864       conv2_1_x2_zeropadding[0][0]     
__________________________________________________________________________________________________
dropout_1 (Dropout)             (None, 56, 56, 32)   0           conv2_1_x2[0][0]                 
__________________________________________________________________________________________________
concat_2_1 (Concatenate)        (None, 56, 56, 96)   0           pool1[0][0]                      
                                                                 dropout_1[0][0]                  
__________________________________________________________________________________________________
conv2_2_x1_bn (BatchNormalizati (None, 56, 56, 96)   384         concat_2_1[0][0]                 
__________________________________________________________________________________________________
conv2_2_x1_scale (Scale)        (None, 56, 56, 96)   192         conv2_2_x1_bn[0][0]              
__________________________________________________________________________________________________
relu2_2_x1 (Activation)         (None, 56, 56, 96)   0           conv2_2_x1_scale[0][0]           
__________________________________________________________________________________________________
conv2_2_x1 (Conv2D)             (None, 56, 56, 128)  12288       relu2_2_x1[0][0]                 
__________________________________________________________________________________________________
dropout_2 (Dropout)             (None, 56, 56, 128)  0           conv2_2_x1[0][0]                 
__________________________________________________________________________________________________
conv2_2_x2_bn (BatchNormalizati (None, 56, 56, 128)  512         dropout_2[0][0]                  
__________________________________________________________________________________________________
conv2_2_x2_scale (Scale)        (None, 56, 56, 128)  256         conv2_2_x2_bn[0][0]              
__________________________________________________________________________________________________
relu2_2_x2 (Activation)         (None, 56, 56, 128)  0           conv2_2_x2_scale[0][0]           
__________________________________________________________________________________________________
conv2_2_x2_zeropadding (ZeroPad (None, 58, 58, 128)  0           relu2_2_x2[0][0]                 
__________________________________________________________________________________________________
conv2_2_x2 (Conv2D)             (None, 56, 56, 32)   36864       conv2_2_x2_zeropadding[0][0]     
__________________________________________________________________________________________________
dropout_3 (Dropout)             (None, 56, 56, 32)   0           conv2_2_x2[0][0]                 
__________________________________________________________________________________________________
concat_2_2 (Concatenate)        (None, 56, 56, 128)  0           concat_2_1[0][0]                 
                                                                 dropout_3[0][0]                  
__________________________________________________________________________________________________
conv2_3_x1_bn (BatchNormalizati (None, 56, 56, 128)  512         concat_2_2[0][0]                 
__________________________________________________________________________________________________
conv2_3_x1_scale (Scale)        (None, 56, 56, 128)  256         conv2_3_x1_bn[0][0]              
__________________________________________________________________________________________________
relu2_3_x1 (Activation)         (None, 56, 56, 128)  0           conv2_3_x1_scale[0][0]           
__________________________________________________________________________________________________
conv2_3_x1 (Conv2D)             (None, 56, 56, 128)  16384       relu2_3_x1[0][0]                 
__________________________________________________________________________________________________
dropout_4 (Dropout)             (None, 56, 56, 128)  0           conv2_3_x1[0][0]                 
__________________________________________________________________________________________________
conv2_3_x2_bn (BatchNormalizati (None, 56, 56, 128)  512         dropout_4[0][0]                  
__________________________________________________________________________________________________
conv2_3_x2_scale (Scale)        (None, 56, 56, 128)  256         conv2_3_x2_bn[0][0]              
__________________________________________________________________________________________________
relu2_3_x2 (Activation)         (None, 56, 56, 128)  0           conv2_3_x2_scale[0][0]           
__________________________________________________________________________________________________
conv2_3_x2_zeropadding (ZeroPad (None, 58, 58, 128)  0           relu2_3_x2[0][0]                 
__________________________________________________________________________________________________
conv2_3_x2 (Conv2D)             (None, 56, 56, 32)   36864       conv2_3_x2_zeropadding[0][0]     
__________________________________________________________________________________________________
dropout_5 (Dropout)             (None, 56, 56, 32)   0           conv2_3_x2[0][0]                 
__________________________________________________________________________________________________
concat_2_3 (Concatenate)        (None, 56, 56, 160)  0           concat_2_2[0][0]                 
                                                                 dropout_5[0][0]                  
__________________________________________________________________________________________________
conv2_4_x1_bn (BatchNormalizati (None, 56, 56, 160)  640         concat_2_3[0][0]                 
__________________________________________________________________________________________________
conv2_4_x1_scale (Scale)        (None, 56, 56, 160)  320         conv2_4_x1_bn[0][0]              
__________________________________________________________________________________________________
relu2_4_x1 (Activation)         (None, 56, 56, 160)  0           conv2_4_x1_scale[0][0]           
__________________________________________________________________________________________________
conv2_4_x1 (Conv2D)             (None, 56, 56, 128)  20480       relu2_4_x1[0][0]                 
__________________________________________________________________________________________________
dropout_6 (Dropout)             (None, 56, 56, 128)  0           conv2_4_x1[0][0]                 
__________________________________________________________________________________________________
conv2_4_x2_bn (BatchNormalizati (None, 56, 56, 128)  512         dropout_6[0][0]                  
__________________________________________________________________________________________________
conv2_4_x2_scale (Scale)        (None, 56, 56, 128)  256         conv2_4_x2_bn[0][0]              
__________________________________________________________________________________________________
relu2_4_x2 (Activation)         (None, 56, 56, 128)  0           conv2_4_x2_scale[0][0]           
__________________________________________________________________________________________________
conv2_4_x2_zeropadding (ZeroPad (None, 58, 58, 128)  0           relu2_4_x2[0][0]                 
__________________________________________________________________________________________________
conv2_4_x2 (Conv2D)             (None, 56, 56, 32)   36864       conv2_4_x2_zeropadding[0][0]     
__________________________________________________________________________________________________
dropout_7 (Dropout)             (None, 56, 56, 32)   0           conv2_4_x2[0][0]                 
__________________________________________________________________________________________________
concat_2_4 (Concatenate)        (None, 56, 56, 192)  0           concat_2_3[0][0]                 
                                                                 dropout_7[0][0]                  
__________________________________________________________________________________________________
conv2_5_x1_bn (BatchNormalizati (None, 56, 56, 192)  768         concat_2_4[0][0]                 
__________________________________________________________________________________________________
conv2_5_x1_scale (Scale)        (None, 56, 56, 192)  384         conv2_5_x1_bn[0][0]              
__________________________________________________________________________________________________
relu2_5_x1 (Activation)         (None, 56, 56, 192)  0           conv2_5_x1_scale[0][0]           
__________________________________________________________________________________________________
conv2_5_x1 (Conv2D)             (None, 56, 56, 128)  24576       relu2_5_x1[0][0]                 
__________________________________________________________________________________________________
dropout_8 (Dropout)             (None, 56, 56, 128)  0           conv2_5_x1[0][0]                 
__________________________________________________________________________________________________
conv2_5_x2_bn (BatchNormalizati (None, 56, 56, 128)  512         dropout_8[0][0]                  
__________________________________________________________________________________________________
conv2_5_x2_scale (Scale)        (None, 56, 56, 128)  256         conv2_5_x2_bn[0][0]              
__________________________________________________________________________________________________
relu2_5_x2 (Activation)         (None, 56, 56, 128)  0           conv2_5_x2_scale[0][0]           
__________________________________________________________________________________________________
conv2_5_x2_zeropadding (ZeroPad (None, 58, 58, 128)  0           relu2_5_x2[0][0]                 
__________________________________________________________________________________________________
conv2_5_x2 (Conv2D)             (None, 56, 56, 32)   36864       conv2_5_x2_zeropadding[0][0]     
__________________________________________________________________________________________________
dropout_9 (Dropout)             (None, 56, 56, 32)   0           conv2_5_x2[0][0]                 
__________________________________________________________________________________________________
concat_2_5 (Concatenate)        (None, 56, 56, 224)  0           concat_2_4[0][0]                 
                                                                 dropout_9[0][0]                  
__________________________________________________________________________________________________
conv2_6_x1_bn (BatchNormalizati (None, 56, 56, 224)  896         concat_2_5[0][0]                 
__________________________________________________________________________________________________
conv2_6_x1_scale (Scale)        (None, 56, 56, 224)  448         conv2_6_x1_bn[0][0]              
__________________________________________________________________________________________________
relu2_6_x1 (Activation)         (None, 56, 56, 224)  0           conv2_6_x1_scale[0][0]           
__________________________________________________________________________________________________
conv2_6_x1 (Conv2D)             (None, 56, 56, 128)  28672       relu2_6_x1[0][0]                 
__________________________________________________________________________________________________
dropout_10 (Dropout)            (None, 56, 56, 128)  0           conv2_6_x1[0][0]                 
__________________________________________________________________________________________________
conv2_6_x2_bn (BatchNormalizati (None, 56, 56, 128)  512         dropout_10[0][0]                 
__________________________________________________________________________________________________
conv2_6_x2_scale (Scale)        (None, 56, 56, 128)  256         conv2_6_x2_bn[0][0]              
__________________________________________________________________________________________________
relu2_6_x2 (Activation)         (None, 56, 56, 128)  0           conv2_6_x2_scale[0][0]           
__________________________________________________________________________________________________
conv2_6_x2_zeropadding (ZeroPad (None, 58, 58, 128)  0           relu2_6_x2[0][0]                 
__________________________________________________________________________________________________
conv2_6_x2 (Conv2D)             (None, 56, 56, 32)   36864       conv2_6_x2_zeropadding[0][0]     
__________________________________________________________________________________________________
dropout_11 (Dropout)            (None, 56, 56, 32)   0           conv2_6_x2[0][0]                 
__________________________________________________________________________________________________
concat_2_6 (Concatenate)        (None, 56, 56, 256)  0           concat_2_5[0][0]                 
                                                                 dropout_11[0][0]                 
__________________________________________________________________________________________________
conv2_blk_bn (BatchNormalizatio (None, 56, 56, 256)  1024        concat_2_6[0][0]                 
__________________________________________________________________________________________________
conv2_blk_scale (Scale)         (None, 56, 56, 256)  512         conv2_blk_bn[0][0]               
__________________________________________________________________________________________________
relu2_blk (Activation)          (None, 56, 56, 256)  0           conv2_blk_scale[0][0]            
__________________________________________________________________________________________________
conv2_blk (Conv2D)              (None, 56, 56, 128)  32768       relu2_blk[0][0]                  
__________________________________________________________________________________________________
dropout_12 (Dropout)            (None, 56, 56, 128)  0           conv2_blk[0][0]                  
__________________________________________________________________________________________________
pool2 (AveragePooling2D)        (None, 28, 28, 128)  0           dropout_12[0][0]                 
__________________________________________________________________________________________________
conv3_1_x1_bn (BatchNormalizati (None, 28, 28, 128)  512         pool2[0][0]                      
__________________________________________________________________________________________________
conv3_1_x1_scale (Scale)        (None, 28, 28, 128)  256         conv3_1_x1_bn[0][0]              
__________________________________________________________________________________________________
relu3_1_x1 (Activation)         (None, 28, 28, 128)  0           conv3_1_x1_scale[0][0]           
__________________________________________________________________________________________________
conv3_1_x1 (Conv2D)             (None, 28, 28, 128)  16384       relu3_1_x1[0][0]                 
__________________________________________________________________________________________________
dropout_13 (Dropout)            (None, 28, 28, 128)  0           conv3_1_x1[0][0]                 
__________________________________________________________________________________________________
conv3_1_x2_bn (BatchNormalizati (None, 28, 28, 128)  512         dropout_13[0][0]                 
__________________________________________________________________________________________________
conv3_1_x2_scale (Scale)        (None, 28, 28, 128)  256         conv3_1_x2_bn[0][0]              
__________________________________________________________________________________________________
relu3_1_x2 (Activation)         (None, 28, 28, 128)  0           conv3_1_x2_scale[0][0]           
__________________________________________________________________________________________________
conv3_1_x2_zeropadding (ZeroPad (None, 30, 30, 128)  0           relu3_1_x2[0][0]                 
__________________________________________________________________________________________________
conv3_1_x2 (Conv2D)             (None, 28, 28, 32)   36864       conv3_1_x2_zeropadding[0][0]     
__________________________________________________________________________________________________
dropout_14 (Dropout)            (None, 28, 28, 32)   0           conv3_1_x2[0][0]                 
__________________________________________________________________________________________________
concat_3_1 (Concatenate)        (None, 28, 28, 160)  0           pool2[0][0]                      
                                                                 dropout_14[0][0]                 
__________________________________________________________________________________________________
conv3_2_x1_bn (BatchNormalizati (None, 28, 28, 160)  640         concat_3_1[0][0]                 
__________________________________________________________________________________________________
conv3_2_x1_scale (Scale)        (None, 28, 28, 160)  320         conv3_2_x1_bn[0][0]              
__________________________________________________________________________________________________
relu3_2_x1 (Activation)         (None, 28, 28, 160)  0           conv3_2_x1_scale[0][0]           
__________________________________________________________________________________________________
conv3_2_x1 (Conv2D)             (None, 28, 28, 128)  20480       relu3_2_x1[0][0]                 
__________________________________________________________________________________________________
dropout_15 (Dropout)            (None, 28, 28, 128)  0           conv3_2_x1[0][0]                 
__________________________________________________________________________________________________
conv3_2_x2_bn (BatchNormalizati (None, 28, 28, 128)  512         dropout_15[0][0]                 
__________________________________________________________________________________________________
conv3_2_x2_scale (Scale)        (None, 28, 28, 128)  256         conv3_2_x2_bn[0][0]              
__________________________________________________________________________________________________
relu3_2_x2 (Activation)         (None, 28, 28, 128)  0           conv3_2_x2_scale[0][0]           
__________________________________________________________________________________________________
conv3_2_x2_zeropadding (ZeroPad (None, 30, 30, 128)  0           relu3_2_x2[0][0]                 
__________________________________________________________________________________________________
conv3_2_x2 (Conv2D)             (None, 28, 28, 32)   36864       conv3_2_x2_zeropadding[0][0]     
__________________________________________________________________________________________________
dropout_16 (Dropout)            (None, 28, 28, 32)   0           conv3_2_x2[0][0]                 
__________________________________________________________________________________________________
concat_3_2 (Concatenate)        (None, 28, 28, 192)  0           concat_3_1[0][0]                 
                                                                 dropout_16[0][0]                 
__________________________________________________________________________________________________
conv3_3_x1_bn (BatchNormalizati (None, 28, 28, 192)  768         concat_3_2[0][0]                 
__________________________________________________________________________________________________
conv3_3_x1_scale (Scale)        (None, 28, 28, 192)  384         conv3_3_x1_bn[0][0]              
__________________________________________________________________________________________________
relu3_3_x1 (Activation)         (None, 28, 28, 192)  0           conv3_3_x1_scale[0][0]           
__________________________________________________________________________________________________
conv3_3_x1 (Conv2D)             (None, 28, 28, 128)  24576       relu3_3_x1[0][0]                 
__________________________________________________________________________________________________
dropout_17 (Dropout)            (None, 28, 28, 128)  0           conv3_3_x1[0][0]                 
__________________________________________________________________________________________________
conv3_3_x2_bn (BatchNormalizati (None, 28, 28, 128)  512         dropout_17[0][0]                 
__________________________________________________________________________________________________
conv3_3_x2_scale (Scale)        (None, 28, 28, 128)  256         conv3_3_x2_bn[0][0]              
__________________________________________________________________________________________________
relu3_3_x2 (Activation)         (None, 28, 28, 128)  0           conv3_3_x2_scale[0][0]           
__________________________________________________________________________________________________
conv3_3_x2_zeropadding (ZeroPad (None, 30, 30, 128)  0           relu3_3_x2[0][0]                 
__________________________________________________________________________________________________
conv3_3_x2 (Conv2D)             (None, 28, 28, 32)   36864       conv3_3_x2_zeropadding[0][0]     
__________________________________________________________________________________________________
dropout_18 (Dropout)            (None, 28, 28, 32)   0           conv3_3_x2[0][0]                 
__________________________________________________________________________________________________
concat_3_3 (Concatenate)        (None, 28, 28, 224)  0           concat_3_2[0][0]                 
                                                                 dropout_18[0][0]                 
__________________________________________________________________________________________________
conv3_4_x1_bn (BatchNormalizati (None, 28, 28, 224)  896         concat_3_3[0][0]                 
__________________________________________________________________________________________________
conv3_4_x1_scale (Scale)        (None, 28, 28, 224)  448         conv3_4_x1_bn[0][0]              
__________________________________________________________________________________________________
relu3_4_x1 (Activation)         (None, 28, 28, 224)  0           conv3_4_x1_scale[0][0]           
__________________________________________________________________________________________________
conv3_4_x1 (Conv2D)             (None, 28, 28, 128)  28672       relu3_4_x1[0][0]                 
__________________________________________________________________________________________________
dropout_19 (Dropout)            (None, 28, 28, 128)  0           conv3_4_x1[0][0]                 
__________________________________________________________________________________________________
conv3_4_x2_bn (BatchNormalizati (None, 28, 28, 128)  512         dropout_19[0][0]                 
__________________________________________________________________________________________________
conv3_4_x2_scale (Scale)        (None, 28, 28, 128)  256         conv3_4_x2_bn[0][0]              
__________________________________________________________________________________________________
relu3_4_x2 (Activation)         (None, 28, 28, 128)  0           conv3_4_x2_scale[0][0]           
__________________________________________________________________________________________________
conv3_4_x2_zeropadding (ZeroPad (None, 30, 30, 128)  0           relu3_4_x2[0][0]                 
__________________________________________________________________________________________________
conv3_4_x2 (Conv2D)             (None, 28, 28, 32)   36864       conv3_4_x2_zeropadding[0][0]     
__________________________________________________________________________________________________
dropout_20 (Dropout)            (None, 28, 28, 32)   0           conv3_4_x2[0][0]                 
__________________________________________________________________________________________________
concat_3_4 (Concatenate)        (None, 28, 28, 256)  0           concat_3_3[0][0]                 
                                                                 dropout_20[0][0]                 
__________________________________________________________________________________________________
conv3_5_x1_bn (BatchNormalizati (None, 28, 28, 256)  1024        concat_3_4[0][0]                 
__________________________________________________________________________________________________
conv3_5_x1_scale (Scale)        (None, 28, 28, 256)  512         conv3_5_x1_bn[0][0]              
__________________________________________________________________________________________________
relu3_5_x1 (Activation)         (None, 28, 28, 256)  0           conv3_5_x1_scale[0][0]           
__________________________________________________________________________________________________
conv3_5_x1 (Conv2D)             (None, 28, 28, 128)  32768       relu3_5_x1[0][0]                 
__________________________________________________________________________________________________
dropout_21 (Dropout)            (None, 28, 28, 128)  0           conv3_5_x1[0][0]                 
__________________________________________________________________________________________________
conv3_5_x2_bn (BatchNormalizati (None, 28, 28, 128)  512         dropout_21[0][0]                 
__________________________________________________________________________________________________
conv3_5_x2_scale (Scale)        (None, 28, 28, 128)  256         conv3_5_x2_bn[0][0]              
__________________________________________________________________________________________________
relu3_5_x2 (Activation)         (None, 28, 28, 128)  0           conv3_5_x2_scale[0][0]           
__________________________________________________________________________________________________
conv3_5_x2_zeropadding (ZeroPad (None, 30, 30, 128)  0           relu3_5_x2[0][0]                 
__________________________________________________________________________________________________
conv3_5_x2 (Conv2D)             (None, 28, 28, 32)   36864       conv3_5_x2_zeropadding[0][0]     
__________________________________________________________________________________________________
dropout_22 (Dropout)            (None, 28, 28, 32)   0           conv3_5_x2[0][0]                 
__________________________________________________________________________________________________
concat_3_5 (Concatenate)        (None, 28, 28, 288)  0           concat_3_4[0][0]                 
                                                                 dropout_22[0][0]                 
__________________________________________________________________________________________________
conv3_6_x1_bn (BatchNormalizati (None, 28, 28, 288)  1152        concat_3_5[0][0]                 
__________________________________________________________________________________________________
conv3_6_x1_scale (Scale)        (None, 28, 28, 288)  576         conv3_6_x1_bn[0][0]              
__________________________________________________________________________________________________
relu3_6_x1 (Activation)         (None, 28, 28, 288)  0           conv3_6_x1_scale[0][0]           
__________________________________________________________________________________________________
conv3_6_x1 (Conv2D)             (None, 28, 28, 128)  36864       relu3_6_x1[0][0]                 
__________________________________________________________________________________________________
dropout_23 (Dropout)            (None, 28, 28, 128)  0           conv3_6_x1[0][0]                 
__________________________________________________________________________________________________
conv3_6_x2_bn (BatchNormalizati (None, 28, 28, 128)  512         dropout_23[0][0]                 
__________________________________________________________________________________________________
conv3_6_x2_scale (Scale)        (None, 28, 28, 128)  256         conv3_6_x2_bn[0][0]              
__________________________________________________________________________________________________
relu3_6_x2 (Activation)         (None, 28, 28, 128)  0           conv3_6_x2_scale[0][0]           
__________________________________________________________________________________________________
conv3_6_x2_zeropadding (ZeroPad (None, 30, 30, 128)  0           relu3_6_x2[0][0]                 
__________________________________________________________________________________________________
conv3_6_x2 (Conv2D)             (None, 28, 28, 32)   36864       conv3_6_x2_zeropadding[0][0]     
__________________________________________________________________________________________________
dropout_24 (Dropout)            (None, 28, 28, 32)   0           conv3_6_x2[0][0]                 
__________________________________________________________________________________________________
concat_3_6 (Concatenate)        (None, 28, 28, 320)  0           concat_3_5[0][0]                 
                                                                 dropout_24[0][0]                 
__________________________________________________________________________________________________
conv3_7_x1_bn (BatchNormalizati (None, 28, 28, 320)  1280        concat_3_6[0][0]                 
__________________________________________________________________________________________________
conv3_7_x1_scale (Scale)        (None, 28, 28, 320)  640         conv3_7_x1_bn[0][0]              
__________________________________________________________________________________________________
relu3_7_x1 (Activation)         (None, 28, 28, 320)  0           conv3_7_x1_scale[0][0]           
__________________________________________________________________________________________________
conv3_7_x1 (Conv2D)             (None, 28, 28, 128)  40960       relu3_7_x1[0][0]                 
__________________________________________________________________________________________________
dropout_25 (Dropout)            (None, 28, 28, 128)  0           conv3_7_x1[0][0]                 
__________________________________________________________________________________________________
conv3_7_x2_bn (BatchNormalizati (None, 28, 28, 128)  512         dropout_25[0][0]                 
__________________________________________________________________________________________________
conv3_7_x2_scale (Scale)        (None, 28, 28, 128)  256         conv3_7_x2_bn[0][0]              
__________________________________________________________________________________________________
relu3_7_x2 (Activation)         (None, 28, 28, 128)  0           conv3_7_x2_scale[0][0]           
__________________________________________________________________________________________________
conv3_7_x2_zeropadding (ZeroPad (None, 30, 30, 128)  0           relu3_7_x2[0][0]                 
__________________________________________________________________________________________________
conv3_7_x2 (Conv2D)             (None, 28, 28, 32)   36864       conv3_7_x2_zeropadding[0][0]     
__________________________________________________________________________________________________
dropout_26 (Dropout)            (None, 28, 28, 32)   0           conv3_7_x2[0][0]                 
__________________________________________________________________________________________________
concat_3_7 (Concatenate)        (None, 28, 28, 352)  0           concat_3_6[0][0]                 
                                                                 dropout_26[0][0]                 
__________________________________________________________________________________________________
conv3_8_x1_bn (BatchNormalizati (None, 28, 28, 352)  1408        concat_3_7[0][0]                 
__________________________________________________________________________________________________
conv3_8_x1_scale (Scale)        (None, 28, 28, 352)  704         conv3_8_x1_bn[0][0]              
__________________________________________________________________________________________________
relu3_8_x1 (Activation)         (None, 28, 28, 352)  0           conv3_8_x1_scale[0][0]           
__________________________________________________________________________________________________
conv3_8_x1 (Conv2D)             (None, 28, 28, 128)  45056       relu3_8_x1[0][0]                 
__________________________________________________________________________________________________
dropout_27 (Dropout)            (None, 28, 28, 128)  0           conv3_8_x1[0][0]                 
__________________________________________________________________________________________________
conv3_8_x2_bn (BatchNormalizati (None, 28, 28, 128)  512         dropout_27[0][0]                 
__________________________________________________________________________________________________
conv3_8_x2_scale (Scale)        (None, 28, 28, 128)  256         conv3_8_x2_bn[0][0]              
__________________________________________________________________________________________________
relu3_8_x2 (Activation)         (None, 28, 28, 128)  0           conv3_8_x2_scale[0][0]           
__________________________________________________________________________________________________
conv3_8_x2_zeropadding (ZeroPad (None, 30, 30, 128)  0           relu3_8_x2[0][0]                 
__________________________________________________________________________________________________
conv3_8_x2 (Conv2D)             (None, 28, 28, 32)   36864       conv3_8_x2_zeropadding[0][0]     
__________________________________________________________________________________________________
dropout_28 (Dropout)            (None, 28, 28, 32)   0           conv3_8_x2[0][0]                 
__________________________________________________________________________________________________
concat_3_8 (Concatenate)        (None, 28, 28, 384)  0           concat_3_7[0][0]                 
                                                                 dropout_28[0][0]                 
__________________________________________________________________________________________________
conv3_9_x1_bn (BatchNormalizati (None, 28, 28, 384)  1536        concat_3_8[0][0]                 
__________________________________________________________________________________________________
conv3_9_x1_scale (Scale)        (None, 28, 28, 384)  768         conv3_9_x1_bn[0][0]              
__________________________________________________________________________________________________
relu3_9_x1 (Activation)         (None, 28, 28, 384)  0           conv3_9_x1_scale[0][0]           
__________________________________________________________________________________________________
conv3_9_x1 (Conv2D)             (None, 28, 28, 128)  49152       relu3_9_x1[0][0]                 
__________________________________________________________________________________________________
dropout_29 (Dropout)            (None, 28, 28, 128)  0           conv3_9_x1[0][0]                 
__________________________________________________________________________________________________
conv3_9_x2_bn (BatchNormalizati (None, 28, 28, 128)  512         dropout_29[0][0]                 
__________________________________________________________________________________________________
conv3_9_x2_scale (Scale)        (None, 28, 28, 128)  256         conv3_9_x2_bn[0][0]              
__________________________________________________________________________________________________
relu3_9_x2 (Activation)         (None, 28, 28, 128)  0           conv3_9_x2_scale[0][0]           
__________________________________________________________________________________________________
conv3_9_x2_zeropadding (ZeroPad (None, 30, 30, 128)  0           relu3_9_x2[0][0]                 
__________________________________________________________________________________________________
conv3_9_x2 (Conv2D)             (None, 28, 28, 32)   36864       conv3_9_x2_zeropadding[0][0]     
__________________________________________________________________________________________________
dropout_30 (Dropout)            (None, 28, 28, 32)   0           conv3_9_x2[0][0]                 
__________________________________________________________________________________________________
concat_3_9 (Concatenate)        (None, 28, 28, 416)  0           concat_3_8[0][0]                 
                                                                 dropout_30[0][0]                 
__________________________________________________________________________________________________
conv3_10_x1_bn (BatchNormalizat (None, 28, 28, 416)  1664        concat_3_9[0][0]                 
__________________________________________________________________________________________________
conv3_10_x1_scale (Scale)       (None, 28, 28, 416)  832         conv3_10_x1_bn[0][0]             
__________________________________________________________________________________________________
relu3_10_x1 (Activation)        (None, 28, 28, 416)  0           conv3_10_x1_scale[0][0]          
__________________________________________________________________________________________________
conv3_10_x1 (Conv2D)            (None, 28, 28, 128)  53248       relu3_10_x1[0][0]                
__________________________________________________________________________________________________
dropout_31 (Dropout)            (None, 28, 28, 128)  0           conv3_10_x1[0][0]                
__________________________________________________________________________________________________
conv3_10_x2_bn (BatchNormalizat (None, 28, 28, 128)  512         dropout_31[0][0]                 
__________________________________________________________________________________________________
conv3_10_x2_scale (Scale)       (None, 28, 28, 128)  256         conv3_10_x2_bn[0][0]             
__________________________________________________________________________________________________
relu3_10_x2 (Activation)        (None, 28, 28, 128)  0           conv3_10_x2_scale[0][0]          
__________________________________________________________________________________________________
conv3_10_x2_zeropadding (ZeroPa (None, 30, 30, 128)  0           relu3_10_x2[0][0]                
__________________________________________________________________________________________________
conv3_10_x2 (Conv2D)            (None, 28, 28, 32)   36864       conv3_10_x2_zeropadding[0][0]    
__________________________________________________________________________________________________
dropout_32 (Dropout)            (None, 28, 28, 32)   0           conv3_10_x2[0][0]                
__________________________________________________________________________________________________
concat_3_10 (Concatenate)       (None, 28, 28, 448)  0           concat_3_9[0][0]                 
                                                                 dropout_32[0][0]                 
__________________________________________________________________________________________________
conv3_11_x1_bn (BatchNormalizat (None, 28, 28, 448)  1792        concat_3_10[0][0]                
__________________________________________________________________________________________________
conv3_11_x1_scale (Scale)       (None, 28, 28, 448)  896         conv3_11_x1_bn[0][0]             
__________________________________________________________________________________________________
relu3_11_x1 (Activation)        (None, 28, 28, 448)  0           conv3_11_x1_scale[0][0]          
__________________________________________________________________________________________________
conv3_11_x1 (Conv2D)            (None, 28, 28, 128)  57344       relu3_11_x1[0][0]                
__________________________________________________________________________________________________
dropout_33 (Dropout)            (None, 28, 28, 128)  0           conv3_11_x1[0][0]                
__________________________________________________________________________________________________
conv3_11_x2_bn (BatchNormalizat (None, 28, 28, 128)  512         dropout_33[0][0]                 
__________________________________________________________________________________________________
conv3_11_x2_scale (Scale)       (None, 28, 28, 128)  256         conv3_11_x2_bn[0][0]             
__________________________________________________________________________________________________
relu3_11_x2 (Activation)        (None, 28, 28, 128)  0           conv3_11_x2_scale[0][0]          
__________________________________________________________________________________________________
conv3_11_x2_zeropadding (ZeroPa (None, 30, 30, 128)  0           relu3_11_x2[0][0]                
__________________________________________________________________________________________________
conv3_11_x2 (Conv2D)            (None, 28, 28, 32)   36864       conv3_11_x2_zeropadding[0][0]    
__________________________________________________________________________________________________
dropout_34 (Dropout)            (None, 28, 28, 32)   0           conv3_11_x2[0][0]                
__________________________________________________________________________________________________
concat_3_11 (Concatenate)       (None, 28, 28, 480)  0           concat_3_10[0][0]                
                                                                 dropout_34[0][0]                 
__________________________________________________________________________________________________
conv3_12_x1_bn (BatchNormalizat (None, 28, 28, 480)  1920        concat_3_11[0][0]                
__________________________________________________________________________________________________
conv3_12_x1_scale (Scale)       (None, 28, 28, 480)  960         conv3_12_x1_bn[0][0]             
__________________________________________________________________________________________________
relu3_12_x1 (Activation)        (None, 28, 28, 480)  0           conv3_12_x1_scale[0][0]          
__________________________________________________________________________________________________
conv3_12_x1 (Conv2D)            (None, 28, 28, 128)  61440       relu3_12_x1[0][0]                
__________________________________________________________________________________________________
dropout_35 (Dropout)            (None, 28, 28, 128)  0           conv3_12_x1[0][0]                
__________________________________________________________________________________________________
conv3_12_x2_bn (BatchNormalizat (None, 28, 28, 128)  512         dropout_35[0][0]                 
__________________________________________________________________________________________________
conv3_12_x2_scale (Scale)       (None, 28, 28, 128)  256         conv3_12_x2_bn[0][0]             
__________________________________________________________________________________________________
relu3_12_x2 (Activation)        (None, 28, 28, 128)  0           conv3_12_x2_scale[0][0]          
__________________________________________________________________________________________________
conv3_12_x2_zeropadding (ZeroPa (None, 30, 30, 128)  0           relu3_12_x2[0][0]                
__________________________________________________________________________________________________
conv3_12_x2 (Conv2D)            (None, 28, 28, 32)   36864       conv3_12_x2_zeropadding[0][0]    
__________________________________________________________________________________________________
dropout_36 (Dropout)            (None, 28, 28, 32)   0           conv3_12_x2[0][0]                
__________________________________________________________________________________________________
concat_3_12 (Concatenate)       (None, 28, 28, 512)  0           concat_3_11[0][0]                
                                                                 dropout_36[0][0]                 
__________________________________________________________________________________________________
conv3_blk_bn (BatchNormalizatio (None, 28, 28, 512)  2048        concat_3_12[0][0]                
__________________________________________________________________________________________________
conv3_blk_scale (Scale)         (None, 28, 28, 512)  1024        conv3_blk_bn[0][0]               
__________________________________________________________________________________________________
relu3_blk (Activation)          (None, 28, 28, 512)  0           conv3_blk_scale[0][0]            
__________________________________________________________________________________________________
conv3_blk (Conv2D)              (None, 28, 28, 256)  131072      relu3_blk[0][0]                  
__________________________________________________________________________________________________
dropout_37 (Dropout)            (None, 28, 28, 256)  0           conv3_blk[0][0]                  
__________________________________________________________________________________________________
pool3 (AveragePooling2D)        (None, 14, 14, 256)  0           dropout_37[0][0]                 
__________________________________________________________________________________________________
conv4_1_x1_bn (BatchNormalizati (None, 14, 14, 256)  1024        pool3[0][0]                      
__________________________________________________________________________________________________
conv4_1_x1_scale (Scale)        (None, 14, 14, 256)  512         conv4_1_x1_bn[0][0]              
__________________________________________________________________________________________________
relu4_1_x1 (Activation)         (None, 14, 14, 256)  0           conv4_1_x1_scale[0][0]           
__________________________________________________________________________________________________
conv4_1_x1 (Conv2D)             (None, 14, 14, 128)  32768       relu4_1_x1[0][0]                 
__________________________________________________________________________________________________
dropout_38 (Dropout)            (None, 14, 14, 128)  0           conv4_1_x1[0][0]                 
__________________________________________________________________________________________________
conv4_1_x2_bn (BatchNormalizati (None, 14, 14, 128)  512         dropout_38[0][0]                 
__________________________________________________________________________________________________
conv4_1_x2_scale (Scale)        (None, 14, 14, 128)  256         conv4_1_x2_bn[0][0]              
__________________________________________________________________________________________________
relu4_1_x2 (Activation)         (None, 14, 14, 128)  0           conv4_1_x2_scale[0][0]           
__________________________________________________________________________________________________
conv4_1_x2_zeropadding (ZeroPad (None, 16, 16, 128)  0           relu4_1_x2[0][0]                 
__________________________________________________________________________________________________
conv4_1_x2 (Conv2D)             (None, 14, 14, 32)   36864       conv4_1_x2_zeropadding[0][0]     
__________________________________________________________________________________________________
dropout_39 (Dropout)            (None, 14, 14, 32)   0           conv4_1_x2[0][0]                 
__________________________________________________________________________________________________
concat_4_1 (Concatenate)        (None, 14, 14, 288)  0           pool3[0][0]                      
                                                                 dropout_39[0][0]                 
__________________________________________________________________________________________________
conv4_2_x1_bn (BatchNormalizati (None, 14, 14, 288)  1152        concat_4_1[0][0]                 
__________________________________________________________________________________________________
conv4_2_x1_scale (Scale)        (None, 14, 14, 288)  576         conv4_2_x1_bn[0][0]              
__________________________________________________________________________________________________
relu4_2_x1 (Activation)         (None, 14, 14, 288)  0           conv4_2_x1_scale[0][0]           
__________________________________________________________________________________________________
conv4_2_x1 (Conv2D)             (None, 14, 14, 128)  36864       relu4_2_x1[0][0]                 
__________________________________________________________________________________________________
dropout_40 (Dropout)            (None, 14, 14, 128)  0           conv4_2_x1[0][0]                 
__________________________________________________________________________________________________
conv4_2_x2_bn (BatchNormalizati (None, 14, 14, 128)  512         dropout_40[0][0]                 
__________________________________________________________________________________________________
conv4_2_x2_scale (Scale)        (None, 14, 14, 128)  256         conv4_2_x2_bn[0][0]              
__________________________________________________________________________________________________
relu4_2_x2 (Activation)         (None, 14, 14, 128)  0           conv4_2_x2_scale[0][0]           
__________________________________________________________________________________________________
conv4_2_x2_zeropadding (ZeroPad (None, 16, 16, 128)  0           relu4_2_x2[0][0]                 
__________________________________________________________________________________________________
conv4_2_x2 (Conv2D)             (None, 14, 14, 32)   36864       conv4_2_x2_zeropadding[0][0]     
__________________________________________________________________________________________________
dropout_41 (Dropout)            (None, 14, 14, 32)   0           conv4_2_x2[0][0]                 
__________________________________________________________________________________________________
concat_4_2 (Concatenate)        (None, 14, 14, 320)  0           concat_4_1[0][0]                 
                                                                 dropout_41[0][0]                 
__________________________________________________________________________________________________
conv4_3_x1_bn (BatchNormalizati (None, 14, 14, 320)  1280        concat_4_2[0][0]                 
__________________________________________________________________________________________________
conv4_3_x1_scale (Scale)        (None, 14, 14, 320)  640         conv4_3_x1_bn[0][0]              
__________________________________________________________________________________________________
relu4_3_x1 (Activation)         (None, 14, 14, 320)  0           conv4_3_x1_scale[0][0]           
__________________________________________________________________________________________________
conv4_3_x1 (Conv2D)             (None, 14, 14, 128)  40960       relu4_3_x1[0][0]                 
__________________________________________________________________________________________________
dropout_42 (Dropout)            (None, 14, 14, 128)  0           conv4_3_x1[0][0]                 
__________________________________________________________________________________________________
conv4_3_x2_bn (BatchNormalizati (None, 14, 14, 128)  512         dropout_42[0][0]                 
__________________________________________________________________________________________________
conv4_3_x2_scale (Scale)        (None, 14, 14, 128)  256         conv4_3_x2_bn[0][0]              
__________________________________________________________________________________________________
relu4_3_x2 (Activation)         (None, 14, 14, 128)  0           conv4_3_x2_scale[0][0]           
__________________________________________________________________________________________________
conv4_3_x2_zeropadding (ZeroPad (None, 16, 16, 128)  0           relu4_3_x2[0][0]                 
__________________________________________________________________________________________________
conv4_3_x2 (Conv2D)             (None, 14, 14, 32)   36864       conv4_3_x2_zeropadding[0][0]     
__________________________________________________________________________________________________
dropout_43 (Dropout)            (None, 14, 14, 32)   0           conv4_3_x2[0][0]                 
__________________________________________________________________________________________________
concat_4_3 (Concatenate)        (None, 14, 14, 352)  0           concat_4_2[0][0]                 
                                                                 dropout_43[0][0]                 
__________________________________________________________________________________________________
conv4_4_x1_bn (BatchNormalizati (None, 14, 14, 352)  1408        concat_4_3[0][0]                 
__________________________________________________________________________________________________
conv4_4_x1_scale (Scale)        (None, 14, 14, 352)  704         conv4_4_x1_bn[0][0]              
__________________________________________________________________________________________________
relu4_4_x1 (Activation)         (None, 14, 14, 352)  0           conv4_4_x1_scale[0][0]           
__________________________________________________________________________________________________
conv4_4_x1 (Conv2D)             (None, 14, 14, 128)  45056       relu4_4_x1[0][0]                 
__________________________________________________________________________________________________
dropout_44 (Dropout)            (None, 14, 14, 128)  0           conv4_4_x1[0][0]                 
__________________________________________________________________________________________________
conv4_4_x2_bn (BatchNormalizati (None, 14, 14, 128)  512         dropout_44[0][0]                 
__________________________________________________________________________________________________
conv4_4_x2_scale (Scale)        (None, 14, 14, 128)  256         conv4_4_x2_bn[0][0]              
__________________________________________________________________________________________________
relu4_4_x2 (Activation)         (None, 14, 14, 128)  0           conv4_4_x2_scale[0][0]           
__________________________________________________________________________________________________
conv4_4_x2_zeropadding (ZeroPad (None, 16, 16, 128)  0           relu4_4_x2[0][0]                 
__________________________________________________________________________________________________
conv4_4_x2 (Conv2D)             (None, 14, 14, 32)   36864       conv4_4_x2_zeropadding[0][0]     
__________________________________________________________________________________________________
dropout_45 (Dropout)            (None, 14, 14, 32)   0           conv4_4_x2[0][0]                 
__________________________________________________________________________________________________
concat_4_4 (Concatenate)        (None, 14, 14, 384)  0           concat_4_3[0][0]                 
                                                                 dropout_45[0][0]                 
__________________________________________________________________________________________________
conv4_5_x1_bn (BatchNormalizati (None, 14, 14, 384)  1536        concat_4_4[0][0]                 
__________________________________________________________________________________________________
conv4_5_x1_scale (Scale)        (None, 14, 14, 384)  768         conv4_5_x1_bn[0][0]              
__________________________________________________________________________________________________
relu4_5_x1 (Activation)         (None, 14, 14, 384)  0           conv4_5_x1_scale[0][0]           
__________________________________________________________________________________________________
conv4_5_x1 (Conv2D)             (None, 14, 14, 128)  49152       relu4_5_x1[0][0]                 
__________________________________________________________________________________________________
dropout_46 (Dropout)            (None, 14, 14, 128)  0           conv4_5_x1[0][0]                 
__________________________________________________________________________________________________
conv4_5_x2_bn (BatchNormalizati (None, 14, 14, 128)  512         dropout_46[0][0]                 
__________________________________________________________________________________________________
conv4_5_x2_scale (Scale)        (None, 14, 14, 128)  256         conv4_5_x2_bn[0][0]              
__________________________________________________________________________________________________
relu4_5_x2 (Activation)         (None, 14, 14, 128)  0           conv4_5_x2_scale[0][0]           
__________________________________________________________________________________________________
conv4_5_x2_zeropadding (ZeroPad (None, 16, 16, 128)  0           relu4_5_x2[0][0]                 
__________________________________________________________________________________________________
conv4_5_x2 (Conv2D)             (None, 14, 14, 32)   36864       conv4_5_x2_zeropadding[0][0]     
__________________________________________________________________________________________________
dropout_47 (Dropout)            (None, 14, 14, 32)   0           conv4_5_x2[0][0]                 
__________________________________________________________________________________________________
concat_4_5 (Concatenate)        (None, 14, 14, 416)  0           concat_4_4[0][0]                 
                                                                 dropout_47[0][0]                 
__________________________________________________________________________________________________
conv4_6_x1_bn (BatchNormalizati (None, 14, 14, 416)  1664        concat_4_5[0][0]                 
__________________________________________________________________________________________________
conv4_6_x1_scale (Scale)        (None, 14, 14, 416)  832         conv4_6_x1_bn[0][0]              
__________________________________________________________________________________________________
relu4_6_x1 (Activation)         (None, 14, 14, 416)  0           conv4_6_x1_scale[0][0]           
__________________________________________________________________________________________________
conv4_6_x1 (Conv2D)             (None, 14, 14, 128)  53248       relu4_6_x1[0][0]                 
__________________________________________________________________________________________________
dropout_48 (Dropout)            (None, 14, 14, 128)  0           conv4_6_x1[0][0]                 
__________________________________________________________________________________________________
conv4_6_x2_bn (BatchNormalizati (None, 14, 14, 128)  512         dropout_48[0][0]                 
__________________________________________________________________________________________________
conv4_6_x2_scale (Scale)        (None, 14, 14, 128)  256         conv4_6_x2_bn[0][0]              
__________________________________________________________________________________________________
relu4_6_x2 (Activation)         (None, 14, 14, 128)  0           conv4_6_x2_scale[0][0]           
__________________________________________________________________________________________________
conv4_6_x2_zeropadding (ZeroPad (None, 16, 16, 128)  0           relu4_6_x2[0][0]                 
__________________________________________________________________________________________________
conv4_6_x2 (Conv2D)             (None, 14, 14, 32)   36864       conv4_6_x2_zeropadding[0][0]     
__________________________________________________________________________________________________
dropout_49 (Dropout)            (None, 14, 14, 32)   0           conv4_6_x2[0][0]                 
__________________________________________________________________________________________________
concat_4_6 (Concatenate)        (None, 14, 14, 448)  0           concat_4_5[0][0]                 
                                                                 dropout_49[0][0]                 
__________________________________________________________________________________________________
conv4_7_x1_bn (BatchNormalizati (None, 14, 14, 448)  1792        concat_4_6[0][0]                 
__________________________________________________________________________________________________
conv4_7_x1_scale (Scale)        (None, 14, 14, 448)  896         conv4_7_x1_bn[0][0]              
__________________________________________________________________________________________________
relu4_7_x1 (Activation)         (None, 14, 14, 448)  0           conv4_7_x1_scale[0][0]           
__________________________________________________________________________________________________
conv4_7_x1 (Conv2D)             (None, 14, 14, 128)  57344       relu4_7_x1[0][0]                 
__________________________________________________________________________________________________
dropout_50 (Dropout)            (None, 14, 14, 128)  0           conv4_7_x1[0][0]                 
__________________________________________________________________________________________________
conv4_7_x2_bn (BatchNormalizati (None, 14, 14, 128)  512         dropout_50[0][0]                 
__________________________________________________________________________________________________
conv4_7_x2_scale (Scale)        (None, 14, 14, 128)  256         conv4_7_x2_bn[0][0]              
__________________________________________________________________________________________________
relu4_7_x2 (Activation)         (None, 14, 14, 128)  0           conv4_7_x2_scale[0][0]           
__________________________________________________________________________________________________
conv4_7_x2_zeropadding (ZeroPad (None, 16, 16, 128)  0           relu4_7_x2[0][0]                 
__________________________________________________________________________________________________
conv4_7_x2 (Conv2D)             (None, 14, 14, 32)   36864       conv4_7_x2_zeropadding[0][0]     
__________________________________________________________________________________________________
dropout_51 (Dropout)            (None, 14, 14, 32)   0           conv4_7_x2[0][0]                 
__________________________________________________________________________________________________
concat_4_7 (Concatenate)        (None, 14, 14, 480)  0           concat_4_6[0][0]                 
                                                                 dropout_51[0][0]                 
__________________________________________________________________________________________________
conv4_8_x1_bn (BatchNormalizati (None, 14, 14, 480)  1920        concat_4_7[0][0]                 
__________________________________________________________________________________________________
conv4_8_x1_scale (Scale)        (None, 14, 14, 480)  960         conv4_8_x1_bn[0][0]              
__________________________________________________________________________________________________
relu4_8_x1 (Activation)         (None, 14, 14, 480)  0           conv4_8_x1_scale[0][0]           
__________________________________________________________________________________________________
conv4_8_x1 (Conv2D)             (None, 14, 14, 128)  61440       relu4_8_x1[0][0]                 
__________________________________________________________________________________________________
dropout_52 (Dropout)            (None, 14, 14, 128)  0           conv4_8_x1[0][0]                 
__________________________________________________________________________________________________
conv4_8_x2_bn (BatchNormalizati (None, 14, 14, 128)  512         dropout_52[0][0]                 
__________________________________________________________________________________________________
conv4_8_x2_scale (Scale)        (None, 14, 14, 128)  256         conv4_8_x2_bn[0][0]              
__________________________________________________________________________________________________
relu4_8_x2 (Activation)         (None, 14, 14, 128)  0           conv4_8_x2_scale[0][0]           
__________________________________________________________________________________________________
conv4_8_x2_zeropadding (ZeroPad (None, 16, 16, 128)  0           relu4_8_x2[0][0]                 
__________________________________________________________________________________________________
conv4_8_x2 (Conv2D)             (None, 14, 14, 32)   36864       conv4_8_x2_zeropadding[0][0]     
__________________________________________________________________________________________________
dropout_53 (Dropout)            (None, 14, 14, 32)   0           conv4_8_x2[0][0]                 
__________________________________________________________________________________________________
concat_4_8 (Concatenate)        (None, 14, 14, 512)  0           concat_4_7[0][0]                 
                                                                 dropout_53[0][0]                 
__________________________________________________________________________________________________
conv4_9_x1_bn (BatchNormalizati (None, 14, 14, 512)  2048        concat_4_8[0][0]                 
__________________________________________________________________________________________________
conv4_9_x1_scale (Scale)        (None, 14, 14, 512)  1024        conv4_9_x1_bn[0][0]              
__________________________________________________________________________________________________
relu4_9_x1 (Activation)         (None, 14, 14, 512)  0           conv4_9_x1_scale[0][0]           
__________________________________________________________________________________________________
conv4_9_x1 (Conv2D)             (None, 14, 14, 128)  65536       relu4_9_x1[0][0]                 
__________________________________________________________________________________________________
dropout_54 (Dropout)            (None, 14, 14, 128)  0           conv4_9_x1[0][0]                 
__________________________________________________________________________________________________
conv4_9_x2_bn (BatchNormalizati (None, 14, 14, 128)  512         dropout_54[0][0]                 
__________________________________________________________________________________________________
conv4_9_x2_scale (Scale)        (None, 14, 14, 128)  256         conv4_9_x2_bn[0][0]              
__________________________________________________________________________________________________
relu4_9_x2 (Activation)         (None, 14, 14, 128)  0           conv4_9_x2_scale[0][0]           
__________________________________________________________________________________________________
conv4_9_x2_zeropadding (ZeroPad (None, 16, 16, 128)  0           relu4_9_x2[0][0]                 
__________________________________________________________________________________________________
conv4_9_x2 (Conv2D)             (None, 14, 14, 32)   36864       conv4_9_x2_zeropadding[0][0]     
__________________________________________________________________________________________________
dropout_55 (Dropout)            (None, 14, 14, 32)   0           conv4_9_x2[0][0]                 
__________________________________________________________________________________________________
concat_4_9 (Concatenate)        (None, 14, 14, 544)  0           concat_4_8[0][0]                 
                                                                 dropout_55[0][0]                 
__________________________________________________________________________________________________
conv4_10_x1_bn (BatchNormalizat (None, 14, 14, 544)  2176        concat_4_9[0][0]                 
__________________________________________________________________________________________________
conv4_10_x1_scale (Scale)       (None, 14, 14, 544)  1088        conv4_10_x1_bn[0][0]             
__________________________________________________________________________________________________
relu4_10_x1 (Activation)        (None, 14, 14, 544)  0           conv4_10_x1_scale[0][0]          
__________________________________________________________________________________________________
conv4_10_x1 (Conv2D)            (None, 14, 14, 128)  69632       relu4_10_x1[0][0]                
__________________________________________________________________________________________________
dropout_56 (Dropout)            (None, 14, 14, 128)  0           conv4_10_x1[0][0]                
__________________________________________________________________________________________________
conv4_10_x2_bn (BatchNormalizat (None, 14, 14, 128)  512         dropout_56[0][0]                 
__________________________________________________________________________________________________
conv4_10_x2_scale (Scale)       (None, 14, 14, 128)  256         conv4_10_x2_bn[0][0]             
__________________________________________________________________________________________________
relu4_10_x2 (Activation)        (None, 14, 14, 128)  0           conv4_10_x2_scale[0][0]          
__________________________________________________________________________________________________
conv4_10_x2_zeropadding (ZeroPa (None, 16, 16, 128)  0           relu4_10_x2[0][0]                
__________________________________________________________________________________________________
conv4_10_x2 (Conv2D)            (None, 14, 14, 32)   36864       conv4_10_x2_zeropadding[0][0]    
__________________________________________________________________________________________________
dropout_57 (Dropout)            (None, 14, 14, 32)   0           conv4_10_x2[0][0]                
__________________________________________________________________________________________________
concat_4_10 (Concatenate)       (None, 14, 14, 576)  0           concat_4_9[0][0]                 
                                                                 dropout_57[0][0]                 
__________________________________________________________________________________________________
conv4_11_x1_bn (BatchNormalizat (None, 14, 14, 576)  2304        concat_4_10[0][0]                
__________________________________________________________________________________________________
conv4_11_x1_scale (Scale)       (None, 14, 14, 576)  1152        conv4_11_x1_bn[0][0]             
__________________________________________________________________________________________________
relu4_11_x1 (Activation)        (None, 14, 14, 576)  0           conv4_11_x1_scale[0][0]          
__________________________________________________________________________________________________
conv4_11_x1 (Conv2D)            (None, 14, 14, 128)  73728       relu4_11_x1[0][0]                
__________________________________________________________________________________________________
dropout_58 (Dropout)            (None, 14, 14, 128)  0           conv4_11_x1[0][0]                
__________________________________________________________________________________________________
conv4_11_x2_bn (BatchNormalizat (None, 14, 14, 128)  512         dropout_58[0][0]                 
__________________________________________________________________________________________________
conv4_11_x2_scale (Scale)       (None, 14, 14, 128)  256         conv4_11_x2_bn[0][0]             
__________________________________________________________________________________________________
relu4_11_x2 (Activation)        (None, 14, 14, 128)  0           conv4_11_x2_scale[0][0]          
__________________________________________________________________________________________________
conv4_11_x2_zeropadding (ZeroPa (None, 16, 16, 128)  0           relu4_11_x2[0][0]                
__________________________________________________________________________________________________
conv4_11_x2 (Conv2D)            (None, 14, 14, 32)   36864       conv4_11_x2_zeropadding[0][0]    
__________________________________________________________________________________________________
dropout_59 (Dropout)            (None, 14, 14, 32)   0           conv4_11_x2[0][0]                
__________________________________________________________________________________________________
concat_4_11 (Concatenate)       (None, 14, 14, 608)  0           concat_4_10[0][0]                
                                                                 dropout_59[0][0]                 
__________________________________________________________________________________________________
conv4_12_x1_bn (BatchNormalizat (None, 14, 14, 608)  2432        concat_4_11[0][0]                
__________________________________________________________________________________________________
conv4_12_x1_scale (Scale)       (None, 14, 14, 608)  1216        conv4_12_x1_bn[0][0]             
__________________________________________________________________________________________________
relu4_12_x1 (Activation)        (None, 14, 14, 608)  0           conv4_12_x1_scale[0][0]          
__________________________________________________________________________________________________
conv4_12_x1 (Conv2D)            (None, 14, 14, 128)  77824       relu4_12_x1[0][0]                
__________________________________________________________________________________________________
dropout_60 (Dropout)            (None, 14, 14, 128)  0           conv4_12_x1[0][0]                
__________________________________________________________________________________________________
conv4_12_x2_bn (BatchNormalizat (None, 14, 14, 128)  512         dropout_60[0][0]                 
__________________________________________________________________________________________________
conv4_12_x2_scale (Scale)       (None, 14, 14, 128)  256         conv4_12_x2_bn[0][0]             
__________________________________________________________________________________________________
relu4_12_x2 (Activation)        (None, 14, 14, 128)  0           conv4_12_x2_scale[0][0]          
__________________________________________________________________________________________________
conv4_12_x2_zeropadding (ZeroPa (None, 16, 16, 128)  0           relu4_12_x2[0][0]                
__________________________________________________________________________________________________
conv4_12_x2 (Conv2D)            (None, 14, 14, 32)   36864       conv4_12_x2_zeropadding[0][0]    
__________________________________________________________________________________________________
dropout_61 (Dropout)            (None, 14, 14, 32)   0           conv4_12_x2[0][0]                
__________________________________________________________________________________________________
concat_4_12 (Concatenate)       (None, 14, 14, 640)  0           concat_4_11[0][0]                
                                                                 dropout_61[0][0]                 
__________________________________________________________________________________________________
conv4_13_x1_bn (BatchNormalizat (None, 14, 14, 640)  2560        concat_4_12[0][0]                
__________________________________________________________________________________________________
conv4_13_x1_scale (Scale)       (None, 14, 14, 640)  1280        conv4_13_x1_bn[0][0]             
__________________________________________________________________________________________________
relu4_13_x1 (Activation)        (None, 14, 14, 640)  0           conv4_13_x1_scale[0][0]          
__________________________________________________________________________________________________
conv4_13_x1 (Conv2D)            (None, 14, 14, 128)  81920       relu4_13_x1[0][0]                
__________________________________________________________________________________________________
dropout_62 (Dropout)            (None, 14, 14, 128)  0           conv4_13_x1[0][0]                
__________________________________________________________________________________________________
conv4_13_x2_bn (BatchNormalizat (None, 14, 14, 128)  512         dropout_62[0][0]                 
__________________________________________________________________________________________________
conv4_13_x2_scale (Scale)       (None, 14, 14, 128)  256         conv4_13_x2_bn[0][0]             
__________________________________________________________________________________________________
relu4_13_x2 (Activation)        (None, 14, 14, 128)  0           conv4_13_x2_scale[0][0]          
__________________________________________________________________________________________________
conv4_13_x2_zeropadding (ZeroPa (None, 16, 16, 128)  0           relu4_13_x2[0][0]                
__________________________________________________________________________________________________
conv4_13_x2 (Conv2D)            (None, 14, 14, 32)   36864       conv4_13_x2_zeropadding[0][0]    
__________________________________________________________________________________________________
dropout_63 (Dropout)            (None, 14, 14, 32)   0           conv4_13_x2[0][0]                
__________________________________________________________________________________________________
concat_4_13 (Concatenate)       (None, 14, 14, 672)  0           concat_4_12[0][0]                
                                                                 dropout_63[0][0]                 
__________________________________________________________________________________________________
conv4_14_x1_bn (BatchNormalizat (None, 14, 14, 672)  2688        concat_4_13[0][0]                
__________________________________________________________________________________________________
conv4_14_x1_scale (Scale)       (None, 14, 14, 672)  1344        conv4_14_x1_bn[0][0]             
__________________________________________________________________________________________________
relu4_14_x1 (Activation)        (None, 14, 14, 672)  0           conv4_14_x1_scale[0][0]          
__________________________________________________________________________________________________
conv4_14_x1 (Conv2D)            (None, 14, 14, 128)  86016       relu4_14_x1[0][0]                
__________________________________________________________________________________________________
dropout_64 (Dropout)            (None, 14, 14, 128)  0           conv4_14_x1[0][0]                
__________________________________________________________________________________________________
conv4_14_x2_bn (BatchNormalizat (None, 14, 14, 128)  512         dropout_64[0][0]                 
__________________________________________________________________________________________________
conv4_14_x2_scale (Scale)       (None, 14, 14, 128)  256         conv4_14_x2_bn[0][0]             
__________________________________________________________________________________________________
relu4_14_x2 (Activation)        (None, 14, 14, 128)  0           conv4_14_x2_scale[0][0]          
__________________________________________________________________________________________________
conv4_14_x2_zeropadding (ZeroPa (None, 16, 16, 128)  0           relu4_14_x2[0][0]                
__________________________________________________________________________________________________
conv4_14_x2 (Conv2D)            (None, 14, 14, 32)   36864       conv4_14_x2_zeropadding[0][0]    
__________________________________________________________________________________________________
dropout_65 (Dropout)            (None, 14, 14, 32)   0           conv4_14_x2[0][0]                
__________________________________________________________________________________________________
concat_4_14 (Concatenate)       (None, 14, 14, 704)  0           concat_4_13[0][0]                
                                                                 dropout_65[0][0]                 
__________________________________________________________________________________________________
conv4_15_x1_bn (BatchNormalizat (None, 14, 14, 704)  2816        concat_4_14[0][0]                
__________________________________________________________________________________________________
conv4_15_x1_scale (Scale)       (None, 14, 14, 704)  1408        conv4_15_x1_bn[0][0]             
__________________________________________________________________________________________________
relu4_15_x1 (Activation)        (None, 14, 14, 704)  0           conv4_15_x1_scale[0][0]          
__________________________________________________________________________________________________
conv4_15_x1 (Conv2D)            (None, 14, 14, 128)  90112       relu4_15_x1[0][0]                
__________________________________________________________________________________________________
dropout_66 (Dropout)            (None, 14, 14, 128)  0           conv4_15_x1[0][0]                
__________________________________________________________________________________________________
conv4_15_x2_bn (BatchNormalizat (None, 14, 14, 128)  512         dropout_66[0][0]                 
__________________________________________________________________________________________________
conv4_15_x2_scale (Scale)       (None, 14, 14, 128)  256         conv4_15_x2_bn[0][0]             
__________________________________________________________________________________________________
relu4_15_x2 (Activation)        (None, 14, 14, 128)  0           conv4_15_x2_scale[0][0]          
__________________________________________________________________________________________________
conv4_15_x2_zeropadding (ZeroPa (None, 16, 16, 128)  0           relu4_15_x2[0][0]                
__________________________________________________________________________________________________
conv4_15_x2 (Conv2D)            (None, 14, 14, 32)   36864       conv4_15_x2_zeropadding[0][0]    
__________________________________________________________________________________________________
dropout_67 (Dropout)            (None, 14, 14, 32)   0           conv4_15_x2[0][0]                
__________________________________________________________________________________________________
concat_4_15 (Concatenate)       (None, 14, 14, 736)  0           concat_4_14[0][0]                
                                                                 dropout_67[0][0]                 
__________________________________________________________________________________________________
conv4_16_x1_bn (BatchNormalizat (None, 14, 14, 736)  2944        concat_4_15[0][0]                
__________________________________________________________________________________________________
conv4_16_x1_scale (Scale)       (None, 14, 14, 736)  1472        conv4_16_x1_bn[0][0]             
__________________________________________________________________________________________________
relu4_16_x1 (Activation)        (None, 14, 14, 736)  0           conv4_16_x1_scale[0][0]          
__________________________________________________________________________________________________
conv4_16_x1 (Conv2D)            (None, 14, 14, 128)  94208       relu4_16_x1[0][0]                
__________________________________________________________________________________________________
dropout_68 (Dropout)            (None, 14, 14, 128)  0           conv4_16_x1[0][0]                
__________________________________________________________________________________________________
conv4_16_x2_bn (BatchNormalizat (None, 14, 14, 128)  512         dropout_68[0][0]                 
__________________________________________________________________________________________________
conv4_16_x2_scale (Scale)       (None, 14, 14, 128)  256         conv4_16_x2_bn[0][0]             
__________________________________________________________________________________________________
relu4_16_x2 (Activation)        (None, 14, 14, 128)  0           conv4_16_x2_scale[0][0]          
__________________________________________________________________________________________________
conv4_16_x2_zeropadding (ZeroPa (None, 16, 16, 128)  0           relu4_16_x2[0][0]                
__________________________________________________________________________________________________
conv4_16_x2 (Conv2D)            (None, 14, 14, 32)   36864       conv4_16_x2_zeropadding[0][0]    
__________________________________________________________________________________________________
dropout_69 (Dropout)            (None, 14, 14, 32)   0           conv4_16_x2[0][0]                
__________________________________________________________________________________________________
concat_4_16 (Concatenate)       (None, 14, 14, 768)  0           concat_4_15[0][0]                
                                                                 dropout_69[0][0]                 
__________________________________________________________________________________________________
conv4_17_x1_bn (BatchNormalizat (None, 14, 14, 768)  3072        concat_4_16[0][0]                
__________________________________________________________________________________________________
conv4_17_x1_scale (Scale)       (None, 14, 14, 768)  1536        conv4_17_x1_bn[0][0]             
__________________________________________________________________________________________________
relu4_17_x1 (Activation)        (None, 14, 14, 768)  0           conv4_17_x1_scale[0][0]          
__________________________________________________________________________________________________
conv4_17_x1 (Conv2D)            (None, 14, 14, 128)  98304       relu4_17_x1[0][0]                
__________________________________________________________________________________________________
dropout_70 (Dropout)            (None, 14, 14, 128)  0           conv4_17_x1[0][0]                
__________________________________________________________________________________________________
conv4_17_x2_bn (BatchNormalizat (None, 14, 14, 128)  512         dropout_70[0][0]                 
__________________________________________________________________________________________________
conv4_17_x2_scale (Scale)       (None, 14, 14, 128)  256         conv4_17_x2_bn[0][0]             
__________________________________________________________________________________________________
relu4_17_x2 (Activation)        (None, 14, 14, 128)  0           conv4_17_x2_scale[0][0]          
__________________________________________________________________________________________________
conv4_17_x2_zeropadding (ZeroPa (None, 16, 16, 128)  0           relu4_17_x2[0][0]                
__________________________________________________________________________________________________
conv4_17_x2 (Conv2D)            (None, 14, 14, 32)   36864       conv4_17_x2_zeropadding[0][0]    
__________________________________________________________________________________________________
dropout_71 (Dropout)            (None, 14, 14, 32)   0           conv4_17_x2[0][0]                
__________________________________________________________________________________________________
concat_4_17 (Concatenate)       (None, 14, 14, 800)  0           concat_4_16[0][0]                
                                                                 dropout_71[0][0]                 
__________________________________________________________________________________________________
conv4_18_x1_bn (BatchNormalizat (None, 14, 14, 800)  3200        concat_4_17[0][0]                
__________________________________________________________________________________________________
conv4_18_x1_scale (Scale)       (None, 14, 14, 800)  1600        conv4_18_x1_bn[0][0]             
__________________________________________________________________________________________________
relu4_18_x1 (Activation)        (None, 14, 14, 800)  0           conv4_18_x1_scale[0][0]          
__________________________________________________________________________________________________
conv4_18_x1 (Conv2D)            (None, 14, 14, 128)  102400      relu4_18_x1[0][0]                
__________________________________________________________________________________________________
dropout_72 (Dropout)            (None, 14, 14, 128)  0           conv4_18_x1[0][0]                
__________________________________________________________________________________________________
conv4_18_x2_bn (BatchNormalizat (None, 14, 14, 128)  512         dropout_72[0][0]                 
__________________________________________________________________________________________________
conv4_18_x2_scale (Scale)       (None, 14, 14, 128)  256         conv4_18_x2_bn[0][0]             
__________________________________________________________________________________________________
relu4_18_x2 (Activation)        (None, 14, 14, 128)  0           conv4_18_x2_scale[0][0]          
__________________________________________________________________________________________________
conv4_18_x2_zeropadding (ZeroPa (None, 16, 16, 128)  0           relu4_18_x2[0][0]                
__________________________________________________________________________________________________
conv4_18_x2 (Conv2D)            (None, 14, 14, 32)   36864       conv4_18_x2_zeropadding[0][0]    
__________________________________________________________________________________________________
dropout_73 (Dropout)            (None, 14, 14, 32)   0           conv4_18_x2[0][0]                
__________________________________________________________________________________________________
concat_4_18 (Concatenate)       (None, 14, 14, 832)  0           concat_4_17[0][0]                
                                                                 dropout_73[0][0]                 
__________________________________________________________________________________________________
conv4_19_x1_bn (BatchNormalizat (None, 14, 14, 832)  3328        concat_4_18[0][0]                
__________________________________________________________________________________________________
conv4_19_x1_scale (Scale)       (None, 14, 14, 832)  1664        conv4_19_x1_bn[0][0]             
__________________________________________________________________________________________________
relu4_19_x1 (Activation)        (None, 14, 14, 832)  0           conv4_19_x1_scale[0][0]          
__________________________________________________________________________________________________
conv4_19_x1 (Conv2D)            (None, 14, 14, 128)  106496      relu4_19_x1[0][0]                
__________________________________________________________________________________________________
dropout_74 (Dropout)            (None, 14, 14, 128)  0           conv4_19_x1[0][0]                
__________________________________________________________________________________________________
conv4_19_x2_bn (BatchNormalizat (None, 14, 14, 128)  512         dropout_74[0][0]                 
__________________________________________________________________________________________________
conv4_19_x2_scale (Scale)       (None, 14, 14, 128)  256         conv4_19_x2_bn[0][0]             
__________________________________________________________________________________________________
relu4_19_x2 (Activation)        (None, 14, 14, 128)  0           conv4_19_x2_scale[0][0]          
__________________________________________________________________________________________________
conv4_19_x2_zeropadding (ZeroPa (None, 16, 16, 128)  0           relu4_19_x2[0][0]                
__________________________________________________________________________________________________
conv4_19_x2 (Conv2D)            (None, 14, 14, 32)   36864       conv4_19_x2_zeropadding[0][0]    
__________________________________________________________________________________________________
dropout_75 (Dropout)            (None, 14, 14, 32)   0           conv4_19_x2[0][0]                
__________________________________________________________________________________________________
concat_4_19 (Concatenate)       (None, 14, 14, 864)  0           concat_4_18[0][0]                
                                                                 dropout_75[0][0]                 
__________________________________________________________________________________________________
conv4_20_x1_bn (BatchNormalizat (None, 14, 14, 864)  3456        concat_4_19[0][0]                
__________________________________________________________________________________________________
conv4_20_x1_scale (Scale)       (None, 14, 14, 864)  1728        conv4_20_x1_bn[0][0]             
__________________________________________________________________________________________________
relu4_20_x1 (Activation)        (None, 14, 14, 864)  0           conv4_20_x1_scale[0][0]          
__________________________________________________________________________________________________
conv4_20_x1 (Conv2D)            (None, 14, 14, 128)  110592      relu4_20_x1[0][0]                
__________________________________________________________________________________________________
dropout_76 (Dropout)            (None, 14, 14, 128)  0           conv4_20_x1[0][0]                
__________________________________________________________________________________________________
conv4_20_x2_bn (BatchNormalizat (None, 14, 14, 128)  512         dropout_76[0][0]                 
__________________________________________________________________________________________________
conv4_20_x2_scale (Scale)       (None, 14, 14, 128)  256         conv4_20_x2_bn[0][0]             
__________________________________________________________________________________________________
relu4_20_x2 (Activation)        (None, 14, 14, 128)  0           conv4_20_x2_scale[0][0]          
__________________________________________________________________________________________________
conv4_20_x2_zeropadding (ZeroPa (None, 16, 16, 128)  0           relu4_20_x2[0][0]                
__________________________________________________________________________________________________
conv4_20_x2 (Conv2D)            (None, 14, 14, 32)   36864       conv4_20_x2_zeropadding[0][0]    
__________________________________________________________________________________________________
dropout_77 (Dropout)            (None, 14, 14, 32)   0           conv4_20_x2[0][0]                
__________________________________________________________________________________________________
concat_4_20 (Concatenate)       (None, 14, 14, 896)  0           concat_4_19[0][0]                
                                                                 dropout_77[0][0]                 
__________________________________________________________________________________________________
conv4_21_x1_bn (BatchNormalizat (None, 14, 14, 896)  3584        concat_4_20[0][0]                
__________________________________________________________________________________________________
conv4_21_x1_scale (Scale)       (None, 14, 14, 896)  1792        conv4_21_x1_bn[0][0]             
__________________________________________________________________________________________________
relu4_21_x1 (Activation)        (None, 14, 14, 896)  0           conv4_21_x1_scale[0][0]          
__________________________________________________________________________________________________
conv4_21_x1 (Conv2D)            (None, 14, 14, 128)  114688      relu4_21_x1[0][0]                
__________________________________________________________________________________________________
dropout_78 (Dropout)            (None, 14, 14, 128)  0           conv4_21_x1[0][0]                
__________________________________________________________________________________________________
conv4_21_x2_bn (BatchNormalizat (None, 14, 14, 128)  512         dropout_78[0][0]                 
__________________________________________________________________________________________________
conv4_21_x2_scale (Scale)       (None, 14, 14, 128)  256         conv4_21_x2_bn[0][0]             
__________________________________________________________________________________________________
relu4_21_x2 (Activation)        (None, 14, 14, 128)  0           conv4_21_x2_scale[0][0]          
__________________________________________________________________________________________________
conv4_21_x2_zeropadding (ZeroPa (None, 16, 16, 128)  0           relu4_21_x2[0][0]                
__________________________________________________________________________________________________
conv4_21_x2 (Conv2D)            (None, 14, 14, 32)   36864       conv4_21_x2_zeropadding[0][0]    
__________________________________________________________________________________________________
dropout_79 (Dropout)            (None, 14, 14, 32)   0           conv4_21_x2[0][0]                
__________________________________________________________________________________________________
concat_4_21 (Concatenate)       (None, 14, 14, 928)  0           concat_4_20[0][0]                
                                                                 dropout_79[0][0]                 
__________________________________________________________________________________________________
conv4_22_x1_bn (BatchNormalizat (None, 14, 14, 928)  3712        concat_4_21[0][0]                
__________________________________________________________________________________________________
conv4_22_x1_scale (Scale)       (None, 14, 14, 928)  1856        conv4_22_x1_bn[0][0]             
__________________________________________________________________________________________________
relu4_22_x1 (Activation)        (None, 14, 14, 928)  0           conv4_22_x1_scale[0][0]          
__________________________________________________________________________________________________
conv4_22_x1 (Conv2D)            (None, 14, 14, 128)  118784      relu4_22_x1[0][0]                
__________________________________________________________________________________________________
dropout_80 (Dropout)            (None, 14, 14, 128)  0           conv4_22_x1[0][0]                
__________________________________________________________________________________________________
conv4_22_x2_bn (BatchNormalizat (None, 14, 14, 128)  512         dropout_80[0][0]                 
__________________________________________________________________________________________________
conv4_22_x2_scale (Scale)       (None, 14, 14, 128)  256         conv4_22_x2_bn[0][0]             
__________________________________________________________________________________________________
relu4_22_x2 (Activation)        (None, 14, 14, 128)  0           conv4_22_x2_scale[0][0]          
__________________________________________________________________________________________________
conv4_22_x2_zeropadding (ZeroPa (None, 16, 16, 128)  0           relu4_22_x2[0][0]                
__________________________________________________________________________________________________
conv4_22_x2 (Conv2D)            (None, 14, 14, 32)   36864       conv4_22_x2_zeropadding[0][0]    
__________________________________________________________________________________________________
dropout_81 (Dropout)            (None, 14, 14, 32)   0           conv4_22_x2[0][0]                
__________________________________________________________________________________________________
concat_4_22 (Concatenate)       (None, 14, 14, 960)  0           concat_4_21[0][0]                
                                                                 dropout_81[0][0]                 
__________________________________________________________________________________________________
conv4_23_x1_bn (BatchNormalizat (None, 14, 14, 960)  3840        concat_4_22[0][0]                
__________________________________________________________________________________________________
conv4_23_x1_scale (Scale)       (None, 14, 14, 960)  1920        conv4_23_x1_bn[0][0]             
__________________________________________________________________________________________________
relu4_23_x1 (Activation)        (None, 14, 14, 960)  0           conv4_23_x1_scale[0][0]          
__________________________________________________________________________________________________
conv4_23_x1 (Conv2D)            (None, 14, 14, 128)  122880      relu4_23_x1[0][0]                
__________________________________________________________________________________________________
dropout_82 (Dropout)            (None, 14, 14, 128)  0           conv4_23_x1[0][0]                
__________________________________________________________________________________________________
conv4_23_x2_bn (BatchNormalizat (None, 14, 14, 128)  512         dropout_82[0][0]                 
__________________________________________________________________________________________________
conv4_23_x2_scale (Scale)       (None, 14, 14, 128)  256         conv4_23_x2_bn[0][0]             
__________________________________________________________________________________________________
relu4_23_x2 (Activation)        (None, 14, 14, 128)  0           conv4_23_x2_scale[0][0]          
__________________________________________________________________________________________________
conv4_23_x2_zeropadding (ZeroPa (None, 16, 16, 128)  0           relu4_23_x2[0][0]                
__________________________________________________________________________________________________
conv4_23_x2 (Conv2D)            (None, 14, 14, 32)   36864       conv4_23_x2_zeropadding[0][0]    
__________________________________________________________________________________________________
dropout_83 (Dropout)            (None, 14, 14, 32)   0           conv4_23_x2[0][0]                
__________________________________________________________________________________________________
concat_4_23 (Concatenate)       (None, 14, 14, 992)  0           concat_4_22[0][0]                
                                                                 dropout_83[0][0]                 
__________________________________________________________________________________________________
conv4_24_x1_bn (BatchNormalizat (None, 14, 14, 992)  3968        concat_4_23[0][0]                
__________________________________________________________________________________________________
conv4_24_x1_scale (Scale)       (None, 14, 14, 992)  1984        conv4_24_x1_bn[0][0]             
__________________________________________________________________________________________________
relu4_24_x1 (Activation)        (None, 14, 14, 992)  0           conv4_24_x1_scale[0][0]          
__________________________________________________________________________________________________
conv4_24_x1 (Conv2D)            (None, 14, 14, 128)  126976      relu4_24_x1[0][0]                
__________________________________________________________________________________________________
dropout_84 (Dropout)            (None, 14, 14, 128)  0           conv4_24_x1[0][0]                
__________________________________________________________________________________________________
conv4_24_x2_bn (BatchNormalizat (None, 14, 14, 128)  512         dropout_84[0][0]                 
__________________________________________________________________________________________________
conv4_24_x2_scale (Scale)       (None, 14, 14, 128)  256         conv4_24_x2_bn[0][0]             
__________________________________________________________________________________________________
relu4_24_x2 (Activation)        (None, 14, 14, 128)  0           conv4_24_x2_scale[0][0]          
__________________________________________________________________________________________________
conv4_24_x2_zeropadding (ZeroPa (None, 16, 16, 128)  0           relu4_24_x2[0][0]                
__________________________________________________________________________________________________
conv4_24_x2 (Conv2D)            (None, 14, 14, 32)   36864       conv4_24_x2_zeropadding[0][0]    
__________________________________________________________________________________________________
dropout_85 (Dropout)            (None, 14, 14, 32)   0           conv4_24_x2[0][0]                
__________________________________________________________________________________________________
concat_4_24 (Concatenate)       (None, 14, 14, 1024) 0           concat_4_23[0][0]                
                                                                 dropout_85[0][0]                 
__________________________________________________________________________________________________
conv4_25_x1_bn (BatchNormalizat (None, 14, 14, 1024) 4096        concat_4_24[0][0]                
__________________________________________________________________________________________________
conv4_25_x1_scale (Scale)       (None, 14, 14, 1024) 2048        conv4_25_x1_bn[0][0]             
__________________________________________________________________________________________________
relu4_25_x1 (Activation)        (None, 14, 14, 1024) 0           conv4_25_x1_scale[0][0]          
__________________________________________________________________________________________________
conv4_25_x1 (Conv2D)            (None, 14, 14, 128)  131072      relu4_25_x1[0][0]                
__________________________________________________________________________________________________
dropout_86 (Dropout)            (None, 14, 14, 128)  0           conv4_25_x1[0][0]                
__________________________________________________________________________________________________
conv4_25_x2_bn (BatchNormalizat (None, 14, 14, 128)  512         dropout_86[0][0]                 
__________________________________________________________________________________________________
conv4_25_x2_scale (Scale)       (None, 14, 14, 128)  256         conv4_25_x2_bn[0][0]             
__________________________________________________________________________________________________
relu4_25_x2 (Activation)        (None, 14, 14, 128)  0           conv4_25_x2_scale[0][0]          
__________________________________________________________________________________________________
conv4_25_x2_zeropadding (ZeroPa (None, 16, 16, 128)  0           relu4_25_x2[0][0]                
__________________________________________________________________________________________________
conv4_25_x2 (Conv2D)            (None, 14, 14, 32)   36864       conv4_25_x2_zeropadding[0][0]    
__________________________________________________________________________________________________
dropout_87 (Dropout)            (None, 14, 14, 32)   0           conv4_25_x2[0][0]                
__________________________________________________________________________________________________
concat_4_25 (Concatenate)       (None, 14, 14, 1056) 0           concat_4_24[0][0]                
                                                                 dropout_87[0][0]                 
__________________________________________________________________________________________________
conv4_26_x1_bn (BatchNormalizat (None, 14, 14, 1056) 4224        concat_4_25[0][0]                
__________________________________________________________________________________________________
conv4_26_x1_scale (Scale)       (None, 14, 14, 1056) 2112        conv4_26_x1_bn[0][0]             
__________________________________________________________________________________________________
relu4_26_x1 (Activation)        (None, 14, 14, 1056) 0           conv4_26_x1_scale[0][0]          
__________________________________________________________________________________________________
conv4_26_x1 (Conv2D)            (None, 14, 14, 128)  135168      relu4_26_x1[0][0]                
__________________________________________________________________________________________________
dropout_88 (Dropout)            (None, 14, 14, 128)  0           conv4_26_x1[0][0]                
__________________________________________________________________________________________________
conv4_26_x2_bn (BatchNormalizat (None, 14, 14, 128)  512         dropout_88[0][0]                 
__________________________________________________________________________________________________
conv4_26_x2_scale (Scale)       (None, 14, 14, 128)  256         conv4_26_x2_bn[0][0]             
__________________________________________________________________________________________________
relu4_26_x2 (Activation)        (None, 14, 14, 128)  0           conv4_26_x2_scale[0][0]          
__________________________________________________________________________________________________
conv4_26_x2_zeropadding (ZeroPa (None, 16, 16, 128)  0           relu4_26_x2[0][0]                
__________________________________________________________________________________________________
conv4_26_x2 (Conv2D)            (None, 14, 14, 32)   36864       conv4_26_x2_zeropadding[0][0]    
__________________________________________________________________________________________________
dropout_89 (Dropout)            (None, 14, 14, 32)   0           conv4_26_x2[0][0]                
__________________________________________________________________________________________________
concat_4_26 (Concatenate)       (None, 14, 14, 1088) 0           concat_4_25[0][0]                
                                                                 dropout_89[0][0]                 
__________________________________________________________________________________________________
conv4_27_x1_bn (BatchNormalizat (None, 14, 14, 1088) 4352        concat_4_26[0][0]                
__________________________________________________________________________________________________
conv4_27_x1_scale (Scale)       (None, 14, 14, 1088) 2176        conv4_27_x1_bn[0][0]             
__________________________________________________________________________________________________
relu4_27_x1 (Activation)        (None, 14, 14, 1088) 0           conv4_27_x1_scale[0][0]          
__________________________________________________________________________________________________
conv4_27_x1 (Conv2D)            (None, 14, 14, 128)  139264      relu4_27_x1[0][0]                
__________________________________________________________________________________________________
dropout_90 (Dropout)            (None, 14, 14, 128)  0           conv4_27_x1[0][0]                
__________________________________________________________________________________________________
conv4_27_x2_bn (BatchNormalizat (None, 14, 14, 128)  512         dropout_90[0][0]                 
__________________________________________________________________________________________________
conv4_27_x2_scale (Scale)       (None, 14, 14, 128)  256         conv4_27_x2_bn[0][0]             
__________________________________________________________________________________________________
relu4_27_x2 (Activation)        (None, 14, 14, 128)  0           conv4_27_x2_scale[0][0]          
__________________________________________________________________________________________________
conv4_27_x2_zeropadding (ZeroPa (None, 16, 16, 128)  0           relu4_27_x2[0][0]                
__________________________________________________________________________________________________
conv4_27_x2 (Conv2D)            (None, 14, 14, 32)   36864       conv4_27_x2_zeropadding[0][0]    
__________________________________________________________________________________________________
dropout_91 (Dropout)            (None, 14, 14, 32)   0           conv4_27_x2[0][0]                
__________________________________________________________________________________________________
concat_4_27 (Concatenate)       (None, 14, 14, 1120) 0           concat_4_26[0][0]                
                                                                 dropout_91[0][0]                 
__________________________________________________________________________________________________
conv4_28_x1_bn (BatchNormalizat (None, 14, 14, 1120) 4480        concat_4_27[0][0]                
__________________________________________________________________________________________________
conv4_28_x1_scale (Scale)       (None, 14, 14, 1120) 2240        conv4_28_x1_bn[0][0]             
__________________________________________________________________________________________________
relu4_28_x1 (Activation)        (None, 14, 14, 1120) 0           conv4_28_x1_scale[0][0]          
__________________________________________________________________________________________________
conv4_28_x1 (Conv2D)            (None, 14, 14, 128)  143360      relu4_28_x1[0][0]                
__________________________________________________________________________________________________
dropout_92 (Dropout)            (None, 14, 14, 128)  0           conv4_28_x1[0][0]                
__________________________________________________________________________________________________
conv4_28_x2_bn (BatchNormalizat (None, 14, 14, 128)  512         dropout_92[0][0]                 
__________________________________________________________________________________________________
conv4_28_x2_scale (Scale)       (None, 14, 14, 128)  256         conv4_28_x2_bn[0][0]             
__________________________________________________________________________________________________
relu4_28_x2 (Activation)        (None, 14, 14, 128)  0           conv4_28_x2_scale[0][0]          
__________________________________________________________________________________________________
conv4_28_x2_zeropadding (ZeroPa (None, 16, 16, 128)  0           relu4_28_x2[0][0]                
__________________________________________________________________________________________________
conv4_28_x2 (Conv2D)            (None, 14, 14, 32)   36864       conv4_28_x2_zeropadding[0][0]    
__________________________________________________________________________________________________
dropout_93 (Dropout)            (None, 14, 14, 32)   0           conv4_28_x2[0][0]                
__________________________________________________________________________________________________
concat_4_28 (Concatenate)       (None, 14, 14, 1152) 0           concat_4_27[0][0]                
                                                                 dropout_93[0][0]                 
__________________________________________________________________________________________________
conv4_29_x1_bn (BatchNormalizat (None, 14, 14, 1152) 4608        concat_4_28[0][0]                
__________________________________________________________________________________________________
conv4_29_x1_scale (Scale)       (None, 14, 14, 1152) 2304        conv4_29_x1_bn[0][0]             
__________________________________________________________________________________________________
relu4_29_x1 (Activation)        (None, 14, 14, 1152) 0           conv4_29_x1_scale[0][0]          
__________________________________________________________________________________________________
conv4_29_x1 (Conv2D)            (None, 14, 14, 128)  147456      relu4_29_x1[0][0]                
__________________________________________________________________________________________________
dropout_94 (Dropout)            (None, 14, 14, 128)  0           conv4_29_x1[0][0]                
__________________________________________________________________________________________________
conv4_29_x2_bn (BatchNormalizat (None, 14, 14, 128)  512         dropout_94[0][0]                 
__________________________________________________________________________________________________
conv4_29_x2_scale (Scale)       (None, 14, 14, 128)  256         conv4_29_x2_bn[0][0]             
__________________________________________________________________________________________________
relu4_29_x2 (Activation)        (None, 14, 14, 128)  0           conv4_29_x2_scale[0][0]          
__________________________________________________________________________________________________
conv4_29_x2_zeropadding (ZeroPa (None, 16, 16, 128)  0           relu4_29_x2[0][0]                
__________________________________________________________________________________________________
conv4_29_x2 (Conv2D)            (None, 14, 14, 32)   36864       conv4_29_x2_zeropadding[0][0]    
__________________________________________________________________________________________________
dropout_95 (Dropout)            (None, 14, 14, 32)   0           conv4_29_x2[0][0]                
__________________________________________________________________________________________________
concat_4_29 (Concatenate)       (None, 14, 14, 1184) 0           concat_4_28[0][0]                
                                                                 dropout_95[0][0]                 
__________________________________________________________________________________________________
conv4_30_x1_bn (BatchNormalizat (None, 14, 14, 1184) 4736        concat_4_29[0][0]                
__________________________________________________________________________________________________
conv4_30_x1_scale (Scale)       (None, 14, 14, 1184) 2368        conv4_30_x1_bn[0][0]             
__________________________________________________________________________________________________
relu4_30_x1 (Activation)        (None, 14, 14, 1184) 0           conv4_30_x1_scale[0][0]          
__________________________________________________________________________________________________
conv4_30_x1 (Conv2D)            (None, 14, 14, 128)  151552      relu4_30_x1[0][0]                
__________________________________________________________________________________________________
dropout_96 (Dropout)            (None, 14, 14, 128)  0           conv4_30_x1[0][0]                
__________________________________________________________________________________________________
conv4_30_x2_bn (BatchNormalizat (None, 14, 14, 128)  512         dropout_96[0][0]                 
__________________________________________________________________________________________________
conv4_30_x2_scale (Scale)       (None, 14, 14, 128)  256         conv4_30_x2_bn[0][0]             
__________________________________________________________________________________________________
relu4_30_x2 (Activation)        (None, 14, 14, 128)  0           conv4_30_x2_scale[0][0]          
__________________________________________________________________________________________________
conv4_30_x2_zeropadding (ZeroPa (None, 16, 16, 128)  0           relu4_30_x2[0][0]                
__________________________________________________________________________________________________
conv4_30_x2 (Conv2D)            (None, 14, 14, 32)   36864       conv4_30_x2_zeropadding[0][0]    
__________________________________________________________________________________________________
dropout_97 (Dropout)            (None, 14, 14, 32)   0           conv4_30_x2[0][0]                
__________________________________________________________________________________________________
concat_4_30 (Concatenate)       (None, 14, 14, 1216) 0           concat_4_29[0][0]                
                                                                 dropout_97[0][0]                 
__________________________________________________________________________________________________
conv4_31_x1_bn (BatchNormalizat (None, 14, 14, 1216) 4864        concat_4_30[0][0]                
__________________________________________________________________________________________________
conv4_31_x1_scale (Scale)       (None, 14, 14, 1216) 2432        conv4_31_x1_bn[0][0]             
__________________________________________________________________________________________________
relu4_31_x1 (Activation)        (None, 14, 14, 1216) 0           conv4_31_x1_scale[0][0]          
__________________________________________________________________________________________________
conv4_31_x1 (Conv2D)            (None, 14, 14, 128)  155648      relu4_31_x1[0][0]                
__________________________________________________________________________________________________
dropout_98 (Dropout)            (None, 14, 14, 128)  0           conv4_31_x1[0][0]                
__________________________________________________________________________________________________
conv4_31_x2_bn (BatchNormalizat (None, 14, 14, 128)  512         dropout_98[0][0]                 
__________________________________________________________________________________________________
conv4_31_x2_scale (Scale)       (None, 14, 14, 128)  256         conv4_31_x2_bn[0][0]             
__________________________________________________________________________________________________
relu4_31_x2 (Activation)        (None, 14, 14, 128)  0           conv4_31_x2_scale[0][0]          
__________________________________________________________________________________________________
conv4_31_x2_zeropadding (ZeroPa (None, 16, 16, 128)  0           relu4_31_x2[0][0]                
__________________________________________________________________________________________________
conv4_31_x2 (Conv2D)            (None, 14, 14, 32)   36864       conv4_31_x2_zeropadding[0][0]    
__________________________________________________________________________________________________
dropout_99 (Dropout)            (None, 14, 14, 32)   0           conv4_31_x2[0][0]                
__________________________________________________________________________________________________
concat_4_31 (Concatenate)       (None, 14, 14, 1248) 0           concat_4_30[0][0]                
                                                                 dropout_99[0][0]                 
__________________________________________________________________________________________________
conv4_32_x1_bn (BatchNormalizat (None, 14, 14, 1248) 4992        concat_4_31[0][0]                
__________________________________________________________________________________________________
conv4_32_x1_scale (Scale)       (None, 14, 14, 1248) 2496        conv4_32_x1_bn[0][0]             
__________________________________________________________________________________________________
relu4_32_x1 (Activation)        (None, 14, 14, 1248) 0           conv4_32_x1_scale[0][0]          
__________________________________________________________________________________________________
conv4_32_x1 (Conv2D)            (None, 14, 14, 128)  159744      relu4_32_x1[0][0]                
__________________________________________________________________________________________________
dropout_100 (Dropout)           (None, 14, 14, 128)  0           conv4_32_x1[0][0]                
__________________________________________________________________________________________________
conv4_32_x2_bn (BatchNormalizat (None, 14, 14, 128)  512         dropout_100[0][0]                
__________________________________________________________________________________________________
conv4_32_x2_scale (Scale)       (None, 14, 14, 128)  256         conv4_32_x2_bn[0][0]             
__________________________________________________________________________________________________
relu4_32_x2 (Activation)        (None, 14, 14, 128)  0           conv4_32_x2_scale[0][0]          
__________________________________________________________________________________________________
conv4_32_x2_zeropadding (ZeroPa (None, 16, 16, 128)  0           relu4_32_x2[0][0]                
__________________________________________________________________________________________________
conv4_32_x2 (Conv2D)            (None, 14, 14, 32)   36864       conv4_32_x2_zeropadding[0][0]    
__________________________________________________________________________________________________
dropout_101 (Dropout)           (None, 14, 14, 32)   0           conv4_32_x2[0][0]                
__________________________________________________________________________________________________
concat_4_32 (Concatenate)       (None, 14, 14, 1280) 0           concat_4_31[0][0]                
                                                                 dropout_101[0][0]                
__________________________________________________________________________________________________
conv4_blk_bn (BatchNormalizatio (None, 14, 14, 1280) 5120        concat_4_32[0][0]                
__________________________________________________________________________________________________
conv4_blk_scale (Scale)         (None, 14, 14, 1280) 2560        conv4_blk_bn[0][0]               
__________________________________________________________________________________________________
relu4_blk (Activation)          (None, 14, 14, 1280) 0           conv4_blk_scale[0][0]            
__________________________________________________________________________________________________
conv4_blk (Conv2D)              (None, 14, 14, 640)  819200      relu4_blk[0][0]                  
__________________________________________________________________________________________________
dropout_102 (Dropout)           (None, 14, 14, 640)  0           conv4_blk[0][0]                  
__________________________________________________________________________________________________
pool4 (AveragePooling2D)        (None, 7, 7, 640)    0           dropout_102[0][0]                
__________________________________________________________________________________________________
conv5_1_x1_bn (BatchNormalizati (None, 7, 7, 640)    2560        pool4[0][0]                      
__________________________________________________________________________________________________
conv5_1_x1_scale (Scale)        (None, 7, 7, 640)    1280        conv5_1_x1_bn[0][0]              
__________________________________________________________________________________________________
relu5_1_x1 (Activation)         (None, 7, 7, 640)    0           conv5_1_x1_scale[0][0]           
__________________________________________________________________________________________________
conv5_1_x1 (Conv2D)             (None, 7, 7, 128)    81920       relu5_1_x1[0][0]                 
__________________________________________________________________________________________________
dropout_103 (Dropout)           (None, 7, 7, 128)    0           conv5_1_x1[0][0]                 
__________________________________________________________________________________________________
conv5_1_x2_bn (BatchNormalizati (None, 7, 7, 128)    512         dropout_103[0][0]                
__________________________________________________________________________________________________
conv5_1_x2_scale (Scale)        (None, 7, 7, 128)    256         conv5_1_x2_bn[0][0]              
__________________________________________________________________________________________________
relu5_1_x2 (Activation)         (None, 7, 7, 128)    0           conv5_1_x2_scale[0][0]           
__________________________________________________________________________________________________
conv5_1_x2_zeropadding (ZeroPad (None, 9, 9, 128)    0           relu5_1_x2[0][0]                 
__________________________________________________________________________________________________
conv5_1_x2 (Conv2D)             (None, 7, 7, 32)     36864       conv5_1_x2_zeropadding[0][0]     
__________________________________________________________________________________________________
dropout_104 (Dropout)           (None, 7, 7, 32)     0           conv5_1_x2[0][0]                 
__________________________________________________________________________________________________
concat_5_1 (Concatenate)        (None, 7, 7, 672)    0           pool4[0][0]                      
                                                                 dropout_104[0][0]                
__________________________________________________________________________________________________
conv5_2_x1_bn (BatchNormalizati (None, 7, 7, 672)    2688        concat_5_1[0][0]                 
__________________________________________________________________________________________________
conv5_2_x1_scale (Scale)        (None, 7, 7, 672)    1344        conv5_2_x1_bn[0][0]              
__________________________________________________________________________________________________
relu5_2_x1 (Activation)         (None, 7, 7, 672)    0           conv5_2_x1_scale[0][0]           
__________________________________________________________________________________________________
conv5_2_x1 (Conv2D)             (None, 7, 7, 128)    86016       relu5_2_x1[0][0]                 
__________________________________________________________________________________________________
dropout_105 (Dropout)           (None, 7, 7, 128)    0           conv5_2_x1[0][0]                 
__________________________________________________________________________________________________
conv5_2_x2_bn (BatchNormalizati (None, 7, 7, 128)    512         dropout_105[0][0]                
__________________________________________________________________________________________________
conv5_2_x2_scale (Scale)        (None, 7, 7, 128)    256         conv5_2_x2_bn[0][0]              
__________________________________________________________________________________________________
relu5_2_x2 (Activation)         (None, 7, 7, 128)    0           conv5_2_x2_scale[0][0]           
__________________________________________________________________________________________________
conv5_2_x2_zeropadding (ZeroPad (None, 9, 9, 128)    0           relu5_2_x2[0][0]                 
__________________________________________________________________________________________________
conv5_2_x2 (Conv2D)             (None, 7, 7, 32)     36864       conv5_2_x2_zeropadding[0][0]     
__________________________________________________________________________________________________
dropout_106 (Dropout)           (None, 7, 7, 32)     0           conv5_2_x2[0][0]                 
__________________________________________________________________________________________________
concat_5_2 (Concatenate)        (None, 7, 7, 704)    0           concat_5_1[0][0]                 
                                                                 dropout_106[0][0]                
__________________________________________________________________________________________________
conv5_3_x1_bn (BatchNormalizati (None, 7, 7, 704)    2816        concat_5_2[0][0]                 
__________________________________________________________________________________________________
conv5_3_x1_scale (Scale)        (None, 7, 7, 704)    1408        conv5_3_x1_bn[0][0]              
__________________________________________________________________________________________________
relu5_3_x1 (Activation)         (None, 7, 7, 704)    0           conv5_3_x1_scale[0][0]           
__________________________________________________________________________________________________
conv5_3_x1 (Conv2D)             (None, 7, 7, 128)    90112       relu5_3_x1[0][0]                 
__________________________________________________________________________________________________
dropout_107 (Dropout)           (None, 7, 7, 128)    0           conv5_3_x1[0][0]                 
__________________________________________________________________________________________________
conv5_3_x2_bn (BatchNormalizati (None, 7, 7, 128)    512         dropout_107[0][0]                
__________________________________________________________________________________________________
conv5_3_x2_scale (Scale)        (None, 7, 7, 128)    256         conv5_3_x2_bn[0][0]              
__________________________________________________________________________________________________
relu5_3_x2 (Activation)         (None, 7, 7, 128)    0           conv5_3_x2_scale[0][0]           
__________________________________________________________________________________________________
conv5_3_x2_zeropadding (ZeroPad (None, 9, 9, 128)    0           relu5_3_x2[0][0]                 
__________________________________________________________________________________________________
conv5_3_x2 (Conv2D)             (None, 7, 7, 32)     36864       conv5_3_x2_zeropadding[0][0]     
__________________________________________________________________________________________________
dropout_108 (Dropout)           (None, 7, 7, 32)     0           conv5_3_x2[0][0]                 
__________________________________________________________________________________________________
concat_5_3 (Concatenate)        (None, 7, 7, 736)    0           concat_5_2[0][0]                 
                                                                 dropout_108[0][0]                
__________________________________________________________________________________________________
conv5_4_x1_bn (BatchNormalizati (None, 7, 7, 736)    2944        concat_5_3[0][0]                 
__________________________________________________________________________________________________
conv5_4_x1_scale (Scale)        (None, 7, 7, 736)    1472        conv5_4_x1_bn[0][0]              
__________________________________________________________________________________________________
relu5_4_x1 (Activation)         (None, 7, 7, 736)    0           conv5_4_x1_scale[0][0]           
__________________________________________________________________________________________________
conv5_4_x1 (Conv2D)             (None, 7, 7, 128)    94208       relu5_4_x1[0][0]                 
__________________________________________________________________________________________________
dropout_109 (Dropout)           (None, 7, 7, 128)    0           conv5_4_x1[0][0]                 
__________________________________________________________________________________________________
conv5_4_x2_bn (BatchNormalizati (None, 7, 7, 128)    512         dropout_109[0][0]                
__________________________________________________________________________________________________
conv5_4_x2_scale (Scale)        (None, 7, 7, 128)    256         conv5_4_x2_bn[0][0]              
__________________________________________________________________________________________________
relu5_4_x2 (Activation)         (None, 7, 7, 128)    0           conv5_4_x2_scale[0][0]           
__________________________________________________________________________________________________
conv5_4_x2_zeropadding (ZeroPad (None, 9, 9, 128)    0           relu5_4_x2[0][0]                 
__________________________________________________________________________________________________
conv5_4_x2 (Conv2D)             (None, 7, 7, 32)     36864       conv5_4_x2_zeropadding[0][0]     
__________________________________________________________________________________________________
dropout_110 (Dropout)           (None, 7, 7, 32)     0           conv5_4_x2[0][0]                 
__________________________________________________________________________________________________
concat_5_4 (Concatenate)        (None, 7, 7, 768)    0           concat_5_3[0][0]                 
                                                                 dropout_110[0][0]                
__________________________________________________________________________________________________
conv5_5_x1_bn (BatchNormalizati (None, 7, 7, 768)    3072        concat_5_4[0][0]                 
__________________________________________________________________________________________________
conv5_5_x1_scale (Scale)        (None, 7, 7, 768)    1536        conv5_5_x1_bn[0][0]              
__________________________________________________________________________________________________
relu5_5_x1 (Activation)         (None, 7, 7, 768)    0           conv5_5_x1_scale[0][0]           
__________________________________________________________________________________________________
conv5_5_x1 (Conv2D)             (None, 7, 7, 128)    98304       relu5_5_x1[0][0]                 
__________________________________________________________________________________________________
dropout_111 (Dropout)           (None, 7, 7, 128)    0           conv5_5_x1[0][0]                 
__________________________________________________________________________________________________
conv5_5_x2_bn (BatchNormalizati (None, 7, 7, 128)    512         dropout_111[0][0]                
__________________________________________________________________________________________________
conv5_5_x2_scale (Scale)        (None, 7, 7, 128)    256         conv5_5_x2_bn[0][0]              
__________________________________________________________________________________________________
relu5_5_x2 (Activation)         (None, 7, 7, 128)    0           conv5_5_x2_scale[0][0]           
__________________________________________________________________________________________________
conv5_5_x2_zeropadding (ZeroPad (None, 9, 9, 128)    0           relu5_5_x2[0][0]                 
__________________________________________________________________________________________________
conv5_5_x2 (Conv2D)             (None, 7, 7, 32)     36864       conv5_5_x2_zeropadding[0][0]     
__________________________________________________________________________________________________
dropout_112 (Dropout)           (None, 7, 7, 32)     0           conv5_5_x2[0][0]                 
__________________________________________________________________________________________________
concat_5_5 (Concatenate)        (None, 7, 7, 800)    0           concat_5_4[0][0]                 
                                                                 dropout_112[0][0]                
__________________________________________________________________________________________________
conv5_6_x1_bn (BatchNormalizati (None, 7, 7, 800)    3200        concat_5_5[0][0]                 
__________________________________________________________________________________________________
conv5_6_x1_scale (Scale)        (None, 7, 7, 800)    1600        conv5_6_x1_bn[0][0]              
__________________________________________________________________________________________________
relu5_6_x1 (Activation)         (None, 7, 7, 800)    0           conv5_6_x1_scale[0][0]           
__________________________________________________________________________________________________
conv5_6_x1 (Conv2D)             (None, 7, 7, 128)    102400      relu5_6_x1[0][0]                 
__________________________________________________________________________________________________
dropout_113 (Dropout)           (None, 7, 7, 128)    0           conv5_6_x1[0][0]                 
__________________________________________________________________________________________________
conv5_6_x2_bn (BatchNormalizati (None, 7, 7, 128)    512         dropout_113[0][0]                
__________________________________________________________________________________________________
conv5_6_x2_scale (Scale)        (None, 7, 7, 128)    256         conv5_6_x2_bn[0][0]              
__________________________________________________________________________________________________
relu5_6_x2 (Activation)         (None, 7, 7, 128)    0           conv5_6_x2_scale[0][0]           
__________________________________________________________________________________________________
conv5_6_x2_zeropadding (ZeroPad (None, 9, 9, 128)    0           relu5_6_x2[0][0]                 
__________________________________________________________________________________________________
conv5_6_x2 (Conv2D)             (None, 7, 7, 32)     36864       conv5_6_x2_zeropadding[0][0]     
__________________________________________________________________________________________________
dropout_114 (Dropout)           (None, 7, 7, 32)     0           conv5_6_x2[0][0]                 
__________________________________________________________________________________________________
concat_5_6 (Concatenate)        (None, 7, 7, 832)    0           concat_5_5[0][0]                 
                                                                 dropout_114[0][0]                
__________________________________________________________________________________________________
conv5_7_x1_bn (BatchNormalizati (None, 7, 7, 832)    3328        concat_5_6[0][0]                 
__________________________________________________________________________________________________
conv5_7_x1_scale (Scale)        (None, 7, 7, 832)    1664        conv5_7_x1_bn[0][0]              
__________________________________________________________________________________________________
relu5_7_x1 (Activation)         (None, 7, 7, 832)    0           conv5_7_x1_scale[0][0]           
__________________________________________________________________________________________________
conv5_7_x1 (Conv2D)             (None, 7, 7, 128)    106496      relu5_7_x1[0][0]                 
__________________________________________________________________________________________________
dropout_115 (Dropout)           (None, 7, 7, 128)    0           conv5_7_x1[0][0]                 
__________________________________________________________________________________________________
conv5_7_x2_bn (BatchNormalizati (None, 7, 7, 128)    512         dropout_115[0][0]                
__________________________________________________________________________________________________
conv5_7_x2_scale (Scale)        (None, 7, 7, 128)    256         conv5_7_x2_bn[0][0]              
__________________________________________________________________________________________________
relu5_7_x2 (Activation)         (None, 7, 7, 128)    0           conv5_7_x2_scale[0][0]           
__________________________________________________________________________________________________
conv5_7_x2_zeropadding (ZeroPad (None, 9, 9, 128)    0           relu5_7_x2[0][0]                 
__________________________________________________________________________________________________
conv5_7_x2 (Conv2D)             (None, 7, 7, 32)     36864       conv5_7_x2_zeropadding[0][0]     
__________________________________________________________________________________________________
dropout_116 (Dropout)           (None, 7, 7, 32)     0           conv5_7_x2[0][0]                 
__________________________________________________________________________________________________
concat_5_7 (Concatenate)        (None, 7, 7, 864)    0           concat_5_6[0][0]                 
                                                                 dropout_116[0][0]                
__________________________________________________________________________________________________
conv5_8_x1_bn (BatchNormalizati (None, 7, 7, 864)    3456        concat_5_7[0][0]                 
__________________________________________________________________________________________________
conv5_8_x1_scale (Scale)        (None, 7, 7, 864)    1728        conv5_8_x1_bn[0][0]              
__________________________________________________________________________________________________
relu5_8_x1 (Activation)         (None, 7, 7, 864)    0           conv5_8_x1_scale[0][0]           
__________________________________________________________________________________________________
conv5_8_x1 (Conv2D)             (None, 7, 7, 128)    110592      relu5_8_x1[0][0]                 
__________________________________________________________________________________________________
dropout_117 (Dropout)           (None, 7, 7, 128)    0           conv5_8_x1[0][0]                 
__________________________________________________________________________________________________
conv5_8_x2_bn (BatchNormalizati (None, 7, 7, 128)    512         dropout_117[0][0]                
__________________________________________________________________________________________________
conv5_8_x2_scale (Scale)        (None, 7, 7, 128)    256         conv5_8_x2_bn[0][0]              
__________________________________________________________________________________________________
relu5_8_x2 (Activation)         (None, 7, 7, 128)    0           conv5_8_x2_scale[0][0]           
__________________________________________________________________________________________________
conv5_8_x2_zeropadding (ZeroPad (None, 9, 9, 128)    0           relu5_8_x2[0][0]                 
__________________________________________________________________________________________________
conv5_8_x2 (Conv2D)             (None, 7, 7, 32)     36864       conv5_8_x2_zeropadding[0][0]     
__________________________________________________________________________________________________
dropout_118 (Dropout)           (None, 7, 7, 32)     0           conv5_8_x2[0][0]                 
__________________________________________________________________________________________________
concat_5_8 (Concatenate)        (None, 7, 7, 896)    0           concat_5_7[0][0]                 
                                                                 dropout_118[0][0]                
__________________________________________________________________________________________________
conv5_9_x1_bn (BatchNormalizati (None, 7, 7, 896)    3584        concat_5_8[0][0]                 
__________________________________________________________________________________________________
conv5_9_x1_scale (Scale)        (None, 7, 7, 896)    1792        conv5_9_x1_bn[0][0]              
__________________________________________________________________________________________________
relu5_9_x1 (Activation)         (None, 7, 7, 896)    0           conv5_9_x1_scale[0][0]           
__________________________________________________________________________________________________
…
dropout_127 (Dropout)           (None, 7, 7, 128)    0           conv5_13_x1[0][0]                
__________________________________________________________________________________________________
conv5_13_x2_bn (BatchNormalizat (None, 7, 7, 128)    512         dropout_127[0][0]                
__________________________________________________________________________________________________
conv5_13_x2_scale (Scale)       (None, 7, 7, 128)    256         conv5_13_x2_bn[0][0]             
__________________________________________________________________________________________________
relu5_13_x2 (Activation)        (None, 7, 7, 128)    0           conv5_13_x2_scale[0][0]          
__________________________________________________________________________________________________
conv5_13_x2_zeropadding (ZeroPa (None, 9, 9, 128)    0           relu5_13_x2[0][0]                
__________________________________________________________________________________________________
conv5_13_x2 (Conv2D)            (None, 7, 7, 32)     36864       conv5_13_x2_zeropadding[0][0]    
__________________________________________________________________________________________________
dropout_128 (Dropout)           (None, 7, 7, 32)     0           conv5_13_x2[0][0]                
__________________________________________________________________________________________________
concat_5_13 (Concatenate)       (None, 7, 7, 1056)   0           concat_5_12[0][0]                
                                                                 dropout_128[0][0]                
__________________________________________________________________________________________________
conv5_14_x1_bn (BatchNormalizat (None, 7, 7, 1056)   4224        concat_5_13[0][0]                
__________________________________________________________________________________________________
conv5_14_x1_scale (Scale)       (None, 7, 7, 1056)   2112        conv5_14_x1_bn[0][0]             
__________________________________________________________________________________________________
relu5_14_x1 (Activation)        (None, 7, 7, 1056)   0           conv5_14_x1_scale[0][0]          
__________________________________________________________________________________________________
conv5_14_x1 (Conv2D)            (None, 7, 7, 128)    135168      relu5_14_x1[0][0]                
__________________________________________________________________________________________________
dropout_129 (Dropout)           (None, 7, 7, 128)    0           conv5_14_x1[0][0]                
__________________________________________________________________________________________________
conv5_14_x2_bn (BatchNormalizat (None, 7, 7, 128)    512         dropout_129[0][0]                
__________________________________________________________________________________________________
conv5_14_x2_scale (Scale)       (None, 7, 7, 128)    256         conv5_14_x2_bn[0][0]             
__________________________________________________________________________________________________
relu5_14_x2 (Activation)        (None, 7, 7, 128)    0           conv5_14_x2_scale[0][0]          
__________________________________________________________________________________________________
conv5_14_x2_zeropadding (ZeroPa (None, 9, 9, 128)    0           relu5_14_x2[0][0]                
__________________________________________________________________________________________________
conv5_14_x2 (Conv2D)            (None, 7, 7, 32)     36864       conv5_14_x2_zeropadding[0][0]    
__________________________________________________________________________________________________
dropout_130 (Dropout)           (None, 7, 7, 32)     0           conv5_14_x2[0][0]                
__________________________________________________________________________________________________
concat_5_14 (Concatenate)       (None, 7, 7, 1088)   0           concat_5_13[0][0]                
                                                                 dropout_130[0][0]                
__________________________________________________________________________________________________
conv5_15_x1_bn (BatchNormalizat (None, 7, 7, 1088)   4352        concat_5_14[0][0]                
__________________________________________________________________________________________________
conv5_15_x1_scale (Scale)       (None, 7, 7, 1088)   2176        conv5_15_x1_bn[0][0]             
__________________________________________________________________________________________________
relu5_15_x1 (Activation)        (None, 7, 7, 1088)   0           conv5_15_x1_scale[0][0]          
__________________________________________________________________________________________________
conv5_15_x1 (Conv2D)            (None, 7, 7, 128)    139264      relu5_15_x1[0][0]                
__________________________________________________________________________________________________
dropout_131 (Dropout)           (None, 7, 7, 128)    0           conv5_15_x1[0][0]                
__________________________________________________________________________________________________
conv5_15_x2_bn (BatchNormalizat (None, 7, 7, 128)    512         dropout_131[0][0]                
__________________________________________________________________________________________________
conv5_15_x2_scale (Scale)       (None, 7, 7, 128)    256         conv5_15_x2_bn[0][0]             
__________________________________________________________________________________________________
relu5_15_x2 (Activation)        (None, 7, 7, 128)    0           conv5_15_x2_scale[0][0]          
__________________________________________________________________________________________________
conv5_15_x2_zeropadding (ZeroPa (None, 9, 9, 128)    0           relu5_15_x2[0][0]                
__________________________________________________________________________________________________
conv5_15_x2 (Conv2D)            (None, 7, 7, 32)     36864       conv5_15_x2_zeropadding[0][0]    
__________________________________________________________________________________________________
dropout_132 (Dropout)           (None, 7, 7, 32)     0           conv5_15_x2[0][0]                
__________________________________________________________________________________________________
concat_5_15 (Concatenate)       (None, 7, 7, 1120)   0           concat_5_14[0][0]                
                                                                 dropout_132[0][0]                
__________________________________________________________________________________________________
conv5_16_x1_bn (BatchNormalizat (None, 7, 7, 1120)   4480        concat_5_15[0][0]                
__________________________________________________________________________________________________
conv5_16_x1_scale (Scale)       (None, 7, 7, 1120)   2240        conv5_16_x1_bn[0][0]             
__________________________________________________________________________________________________
relu5_16_x1 (Activation)        (None, 7, 7, 1120)   0           conv5_16_x1_scale[0][0]          
__________________________________________________________________________________________________
conv5_16_x1 (Conv2D)            (None, 7, 7, 128)    143360      relu5_16_x1[0][0]                
__________________________________________________________________________________________________
dropout_133 (Dropout)           (None, 7, 7, 128)    0           conv5_16_x1[0][0]                
__________________________________________________________________________________________________
conv5_16_x2_bn (BatchNormalizat (None, 7, 7, 128)    512         dropout_133[0][0]                
__________________________________________________________________________________________________
conv5_16_x2_scale (Scale)       (None, 7, 7, 128)    256         conv5_16_x2_bn[0][0]             
__________________________________________________________________________________________________
relu5_16_x2 (Activation)        (None, 7, 7, 128)    0           conv5_16_x2_scale[0][0]          
__________________________________________________________________________________________________
conv5_16_x2_zeropadding (ZeroPa (None, 9, 9, 128)    0           relu5_16_x2[0][0]                
__________________________________________________________________________________________________
conv5_16_x2 (Conv2D)            (None, 7, 7, 32)     36864       conv5_16_x2_zeropadding[0][0]    
__________________________________________________________________________________________________
dropout_134 (Dropout)           (None, 7, 7, 32)     0           conv5_16_x2[0][0]                
__________________________________________________________________________________________________
concat_5_16 (Concatenate)       (None, 7, 7, 1152)   0           concat_5_15[0][0]                
                                                                 dropout_134[0][0]                
__________________________________________________________________________________________________
conv5_17_x1_bn (BatchNormalizat (None, 7, 7, 1152)   4608        concat_5_16[0][0]                
__________________________________________________________________________________________________
conv5_17_x1_scale (Scale)       (None, 7, 7, 1152)   2304        conv5_17_x1_bn[0][0]             
__________________________________________________________________________________________________
relu5_17_x1 (Activation)        (None, 7, 7, 1152)   0           conv5_17_x1_scale[0][0]          
__________________________________________________________________________________________________
conv5_17_x1 (Conv2D)            (None, 7, 7, 128)    147456      relu5_17_x1[0][0]                
__________________________________________________________________________________________________
dropout_135 (Dropout)           (None, 7, 7, 128)    0           conv5_17_x1[0][0]                
__________________________________________________________________________________________________
conv5_17_x2_bn (BatchNormalizat (None, 7, 7, 128)    512         dropout_135[0][0]                
__________________________________________________________________________________________________
conv5_17_x2_scale (Scale)       (None, 7, 7, 128)    256         conv5_17_x2_bn[0][0]             
__________________________________________________________________________________________________
relu5_17_x2 (Activation)        (None, 7, 7, 128)    0           conv5_17_x2_scale[0][0]          
__________________________________________________________________________________________________
conv5_17_x2_zeropadding (ZeroPa (None, 9, 9, 128)    0           relu5_17_x2[0][0]                
__________________________________________________________________________________________________
conv5_17_x2 (Conv2D)            (None, 7, 7, 32)     36864       conv5_17_x2_zeropadding[0][0]    
__________________________________________________________________________________________________
dropout_136 (Dropout)           (None, 7, 7, 32)     0           conv5_17_x2[0][0]                
__________________________________________________________________________________________________
concat_5_17 (Concatenate)       (None, 7, 7, 1184)   0           concat_5_16[0][0]                
                                                                 dropout_136[0][0]                
__________________________________________________________________________________________________
conv5_18_x1_bn (BatchNormalizat (None, 7, 7, 1184)   4736        concat_5_17[0][0]                
__________________________________________________________________________________________________
conv5_18_x1_scale (Scale)       (None, 7, 7, 1184)   2368        conv5_18_x1_bn[0][0]             
__________________________________________________________________________________________________
relu5_18_x1 (Activation)        (None, 7, 7, 1184)   0           conv5_18_x1_scale[0][0]          
__________________________________________________________________________________________________
conv5_18_x1 (Conv2D)            (None, 7, 7, 128)    151552      relu5_18_x1[0][0]                
__________________________________________________________________________________________________
dropout_137 (Dropout)           (None, 7, 7, 128)    0           conv5_18_x1[0][0]                
__________________________________________________________________________________________________
conv5_18_x2_bn (BatchNormalizat (None, 7, 7, 128)    512         dropout_137[0][0]                
__________________________________________________________________________________________________
conv5_18_x2_scale (Scale)       (None, 7, 7, 128)    256         conv5_18_x2_bn[0][0]             
__________________________________________________________________________________________________
relu5_18_x2 (Activation)        (None, 7, 7, 128)    0           conv5_18_x2_scale[0][0]          
__________________________________________________________________________________________________
conv5_18_x2_zeropadding (ZeroPa (None, 9, 9, 128)    0           relu5_18_x2[0][0]                
__________________________________________________________________________________________________
conv5_18_x2 (Conv2D)            (None, 7, 7, 32)     36864       conv5_18_x2_zeropadding[0][0]    
__________________________________________________________________________________________________
dropout_138 (Dropout)           (None, 7, 7, 32)     0           conv5_18_x2[0][0]                
__________________________________________________________________________________________________
concat_5_18 (Concatenate)       (None, 7, 7, 1216)   0           concat_5_17[0][0]                
                                                                 dropout_138[0][0]                
__________________________________________________________________________________________________
conv5_19_x1_bn (BatchNormalizat (None, 7, 7, 1216)   4864        concat_5_18[0][0]                
__________________________________________________________________________________________________
conv5_19_x1_scale (Scale)       (None, 7, 7, 1216)   2432        conv5_19_x1_bn[0][0]             
__________________________________________________________________________________________________
relu5_19_x1 (Activation)        (None, 7, 7, 1216)   0           conv5_19_x1_scale[0][0]          
__________________________________________________________________________________________________
conv5_19_x1 (Conv2D)            (None, 7, 7, 128)    155648      relu5_19_x1[0][0]                
__________________________________________________________________________________________________
dropout_139 (Dropout)           (None, 7, 7, 128)    0           conv5_19_x1[0][0]                
__________________________________________________________________________________________________
conv5_19_x2_bn (BatchNormalizat (None, 7, 7, 128)    512         dropout_139[0][0]                
__________________________________________________________________________________________________
conv5_19_x2_scale (Scale)       (None, 7, 7, 128)    256         conv5_19_x2_bn[0][0]             
__________________________________________________________________________________________________
relu5_19_x2 (Activation)        (None, 7, 7, 128)    0           conv5_19_x2_scale[0][0]          
__________________________________________________________________________________________________
conv5_19_x2_zeropadding (ZeroPa (None, 9, 9, 128)    0           relu5_19_x2[0][0]                
__________________________________________________________________________________________________
conv5_19_x2 (Conv2D)            (None, 7, 7, 32)     36864       conv5_19_x2_zeropadding[0][0]    
__________________________________________________________________________________________________
dropout_140 (Dropout)           (None, 7, 7, 32)     0           conv5_19_x2[0][0]                
__________________________________________________________________________________________________
concat_5_19 (Concatenate)       (None, 7, 7, 1248)   0           concat_5_18[0][0]                
                                                                 dropout_140[0][0]                
__________________________________________________________________________________________________
conv5_20_x1_bn (BatchNormalizat (None, 7, 7, 1248)   4992        concat_5_19[0][0]                
__________________________________________________________________________________________________
conv5_20_x1_scale (Scale)       (None, 7, 7, 1248)   2496        conv5_20_x1_bn[0][0]             
__________________________________________________________________________________________________
relu5_20_x1 (Activation)        (None, 7, 7, 1248)   0           conv5_20_x1_scale[0][0]          
__________________________________________________________________________________________________
conv5_20_x1 (Conv2D)            (None, 7, 7, 128)    159744      relu5_20_x1[0][0]                
__________________________________________________________________________________________________
dropout_141 (Dropout)           (None, 7, 7, 128)    0           conv5_20_x1[0][0]                
__________________________________________________________________________________________________
conv5_20_x2_bn (BatchNormalizat (None, 7, 7, 128)    512         dropout_141[0][0]                
__________________________________________________________________________________________________
conv5_20_x2_scale (Scale)       (None, 7, 7, 128)    256         conv5_20_x2_bn[0][0]             
__________________________________________________________________________________________________
relu5_20_x2 (Activation)        (None, 7, 7, 128)    0           conv5_20_x2_scale[0][0]          
__________________________________________________________________________________________________
conv5_20_x2_zeropadding (ZeroPa (None, 9, 9, 128)    0           relu5_20_x2[0][0]                
__________________________________________________________________________________________________
conv5_20_x2 (Conv2D)            (None, 7, 7, 32)     36864       conv5_20_x2_zeropadding[0][0]    
__________________________________________________________________________________________________
dropout_142 (Dropout)           (None, 7, 7, 32)     0           conv5_20_x2[0][0]                
__________________________________________________________________________________________________
concat_5_20 (Concatenate)       (None, 7, 7, 1280)   0           concat_5_19[0][0]                
                                                                 dropout_142[0][0]                
__________________________________________________________________________________________________
conv5_21_x1_bn (BatchNormalizat (None, 7, 7, 1280)   5120        concat_5_20[0][0]                
__________________________________________________________________________________________________
conv5_21_x1_scale (Scale)       (None, 7, 7, 1280)   2560        conv5_21_x1_bn[0][0]             
__________________________________________________________________________________________________
relu5_21_x1 (Activation)        (None, 7, 7, 1280)   0           conv5_21_x1_scale[0][0]          
__________________________________________________________________________________________________
conv5_21_x1 (Conv2D)            (None, 7, 7, 128)    163840      relu5_21_x1[0][0]                
__________________________________________________________________________________________________
dropout_143 (Dropout)           (None, 7, 7, 128)    0           conv5_21_x1[0][0]                
__________________________________________________________________________________________________
conv5_21_x2_bn (BatchNormalizat (None, 7, 7, 128)    512         dropout_143[0][0]                
__________________________________________________________________________________________________
conv5_21_x2_scale (Scale)       (None, 7, 7, 128)    256         conv5_21_x2_bn[0][0]             
__________________________________________________________________________________________________
relu5_21_x2 (Activation)        (None, 7, 7, 128)    0           conv5_21_x2_scale[0][0]          
__________________________________________________________________________________________________
conv5_21_x2_zeropadding (ZeroPa (None, 9, 9, 128)    0           relu5_21_x2[0][0]                
__________________________________________________________________________________________________
conv5_21_x2 (Conv2D)            (None, 7, 7, 32)     36864       conv5_21_x2_zeropadding[0][0]    
__________________________________________________________________________________________________
dropout_144 (Dropout)           (None, 7, 7, 32)     0           conv5_21_x2[0][0]                
__________________________________________________________________________________________________
concat_5_21 (Concatenate)       (None, 7, 7, 1312)   0           concat_5_20[0][0]                
                                                                 dropout_144[0][0]                
__________________________________________________________________________________________________
conv5_22_x1_bn (BatchNormalizat (None, 7, 7, 1312)   5248        concat_5_21[0][0]                
__________________________________________________________________________________________________
conv5_22_x1_scale (Scale)       (None, 7, 7, 1312)   2624        conv5_22_x1_bn[0][0]             
__________________________________________________________________________________________________
relu5_22_x1 (Activation)        (None, 7, 7, 1312)   0           conv5_22_x1_scale[0][0]          
__________________________________________________________________________________________________
conv5_22_x1 (Conv2D)            (None, 7, 7, 128)    167936      relu5_22_x1[0][0]                
__________________________________________________________________________________________________
dropout_145 (Dropout)           (None, 7, 7, 128)    0           conv5_22_x1[0][0]                
__________________________________________________________________________________________________
conv5_22_x2_bn (BatchNormalizat (None, 7, 7, 128)    512         dropout_145[0][0]                
__________________________________________________________________________________________________
conv5_22_x2_scale (Scale)       (None, 7, 7, 128)    256         conv5_22_x2_bn[0][0]             
__________________________________________________________________________________________________
relu5_22_x2 (Activation)        (None, 7, 7, 128)    0           conv5_22_x2_scale[0][0]          
__________________________________________________________________________________________________
conv5_22_x2_zeropadding (ZeroPa (None, 9, 9, 128)    0           relu5_22_x2[0][0]                
__________________________________________________________________________________________________
conv5_22_x2 (Conv2D)            (None, 7, 7, 32)     36864       conv5_22_x2_zeropadding[0][0]    
__________________________________________________________________________________________________
dropout_146 (Dropout)           (None, 7, 7, 32)     0           conv5_22_x2[0][0]                
__________________________________________________________________________________________________
concat_5_22 (Concatenate)       (None, 7, 7, 1344)   0           concat_5_21[0][0]                
                                                                 dropout_146[0][0]                
__________________________________________________________________________________________________
conv5_23_x1_bn (BatchNormalizat (None, 7, 7, 1344)   5376        concat_5_22[0][0]                
__________________________________________________________________________________________________
conv5_23_x1_scale (Scale)       (None, 7, 7, 1344)   2688        conv5_23_x1_bn[0][0]             
__________________________________________________________________________________________________
relu5_23_x1 (Activation)        (None, 7, 7, 1344)   0           conv5_23_x1_scale[0][0]          
__________________________________________________________________________________________________
conv5_23_x1 (Conv2D)            (None, 7, 7, 128)    172032      relu5_23_x1[0][0]                
__________________________________________________________________________________________________
dropout_147 (Dropout)           (None, 7, 7, 128)    0           conv5_23_x1[0][0]                
__________________________________________________________________________________________________
conv5_23_x2_bn (BatchNormalizat (None, 7, 7, 128)    512         dropout_147[0][0]                
__________________________________________________________________________________________________
conv5_23_x2_scale (Scale)       (None, 7, 7, 128)    256         conv5_23_x2_bn[0][0]             
__________________________________________________________________________________________________
relu5_23_x2 (Activation)        (None, 7, 7, 128)    0           conv5_23_x2_scale[0][0]          
__________________________________________________________________________________________________
conv5_23_x2_zeropadding (ZeroPa (None, 9, 9, 128)    0           relu5_23_x2[0][0]                
__________________________________________________________________________________________________
conv5_23_x2 (Conv2D)            (None, 7, 7, 32)     36864       conv5_23_x2_zeropadding[0][0]    
__________________________________________________________________________________________________
dropout_148 (Dropout)           (None, 7, 7, 32)     0           conv5_23_x2[0][0]                
__________________________________________________________________________________________________
concat_5_23 (Concatenate)       (None, 7, 7, 1376)   0           concat_5_22[0][0]                
                                                                 dropout_148[0][0]                
__________________________________________________________________________________________________
conv5_24_x1_bn (BatchNormalizat (None, 7, 7, 1376)   5504        concat_5_23[0][0]                
__________________________________________________________________________________________________
conv5_24_x1_scale (Scale)       (None, 7, 7, 1376)   2752        conv5_24_x1_bn[0][0]             
__________________________________________________________________________________________________
relu5_24_x1 (Activation)        (None, 7, 7, 1376)   0           conv5_24_x1_scale[0][0]          
__________________________________________________________________________________________________
conv5_24_x1 (Conv2D)            (None, 7, 7, 128)    176128      relu5_24_x1[0][0]                
__________________________________________________________________________________________________
dropout_149 (Dropout)           (None, 7, 7, 128)    0           conv5_24_x1[0][0]                
__________________________________________________________________________________________________
conv5_24_x2_bn (BatchNormalizat (None, 7, 7, 128)    512         dropout_149[0][0]                
__________________________________________________________________________________________________
conv5_24_x2_scale (Scale)       (None, 7, 7, 128)    256         conv5_24_x2_bn[0][0]             
__________________________________________________________________________________________________
relu5_24_x2 (Activation)        (None, 7, 7, 128)    0           conv5_24_x2_scale[0][0]          
__________________________________________________________________________________________________
conv5_24_x2_zeropadding (ZeroPa (None, 9, 9, 128)    0           relu5_24_x2[0][0]                
__________________________________________________________________________________________________
conv5_24_x2 (Conv2D)            (None, 7, 7, 32)     36864       conv5_24_x2_zeropadding[0][0]    
__________________________________________________________________________________________________
dropout_150 (Dropout)           (None, 7, 7, 32)     0           conv5_24_x2[0][0]                
__________________________________________________________________________________________________
concat_5_24 (Concatenate)       (None, 7, 7, 1408)   0           concat_5_23[0][0]                
                                                                 dropout_150[0][0]                
__________________________________________________________________________________________________
conv5_25_x1_bn (BatchNormalizat (None, 7, 7, 1408)   5632        concat_5_24[0][0]                
__________________________________________________________________________________________________
conv5_25_x1_scale (Scale)       (None, 7, 7, 1408)   2816        conv5_25_x1_bn[0][0]             
__________________________________________________________________________________________________
relu5_25_x1 (Activation)        (None, 7, 7, 1408)   0           conv5_25_x1_scale[0][0]          
__________________________________________________________________________________________________
conv5_25_x1 (Conv2D)            (None, 7, 7, 128)    180224      relu5_25_x1[0][0]                
__________________________________________________________________________________________________
dropout_151 (Dropout)           (None, 7, 7, 128)    0           conv5_25_x1[0][0]                
__________________________________________________________________________________________________
conv5_25_x2_bn (BatchNormalizat (None, 7, 7, 128)    512         dropout_151[0][0]                
__________________________________________________________________________________________________
conv5_25_x2_scale (Scale)       (None, 7, 7, 128)    256         conv5_25_x2_bn[0][0]             
__________________________________________________________________________________________________
relu5_25_x2 (Activation)        (None, 7, 7, 128)    0           conv5_25_x2_scale[0][0]          
__________________________________________________________________________________________________
conv5_25_x2_zeropadding (ZeroPa (None, 9, 9, 128)    0           relu5_25_x2[0][0]                
__________________________________________________________________________________________________
conv5_25_x2 (Conv2D)            (None, 7, 7, 32)     36864       conv5_25_x2_zeropadding[0][0]    
__________________________________________________________________________________________________
dropout_152 (Dropout)           (None, 7, 7, 32)     0           conv5_25_x2[0][0]                
__________________________________________________________________________________________________
concat_5_25 (Concatenate)       (None, 7, 7, 1440)   0           concat_5_24[0][0]                
                                                                 dropout_152[0][0]                
__________________________________________________________________________________________________
conv5_26_x1_bn (BatchNormalizat (None, 7, 7, 1440)   5760        concat_5_25[0][0]                
__________________________________________________________________________________________________
conv5_26_x1_scale (Scale)       (None, 7, 7, 1440)   2880        conv5_26_x1_bn[0][0]             
__________________________________________________________________________________________________
relu5_26_x1 (Activation)        (None, 7, 7, 1440)   0           conv5_26_x1_scale[0][0]          
__________________________________________________________________________________________________
conv5_26_x1 (Conv2D)            (None, 7, 7, 128)    184320      relu5_26_x1[0][0]                
__________________________________________________________________________________________________
dropout_153 (Dropout)           (None, 7, 7, 128)    0           conv5_26_x1[0][0]                
__________________________________________________________________________________________________
conv5_26_x2_bn (BatchNormalizat (None, 7, 7, 128)    512         dropout_153[0][0]                
__________________________________________________________________________________________________
conv5_26_x2_scale (Scale)       (None, 7, 7, 128)    256         conv5_26_x2_bn[0][0]             
__________________________________________________________________________________________________
relu5_26_x2 (Activation)        (None, 7, 7, 128)    0           conv5_26_x2_scale[0][0]          
__________________________________________________________________________________________________
conv5_26_x2_zeropadding (ZeroPa (None, 9, 9, 128)    0           relu5_26_x2[0][0]                
__________________________________________________________________________________________________
conv5_26_x2 (Conv2D)            (None, 7, 7, 32)     36864       conv5_26_x2_zeropadding[0][0]    
__________________________________________________________________________________________________
dropout_154 (Dropout)           (None, 7, 7, 32)     0           conv5_26_x2[0][0]                
__________________________________________________________________________________________________
concat_5_26 (Concatenate)       (None, 7, 7, 1472)   0           concat_5_25[0][0]                
                                                                 dropout_154[0][0]                
__________________________________________________________________________________________________
conv5_27_x1_bn (BatchNormalizat (None, 7, 7, 1472)   5888        concat_5_26[0][0]                
__________________________________________________________________________________________________
conv5_27_x1_scale (Scale)       (None, 7, 7, 1472)   2944        conv5_27_x1_bn[0][0]             
__________________________________________________________________________________________________
relu5_27_x1 (Activation)        (None, 7, 7, 1472)   0           conv5_27_x1_scale[0][0]          
__________________________________________________________________________________________________
conv5_27_x1 (Conv2D)            (None, 7, 7, 128)    188416      relu5_27_x1[0][0]                
__________________________________________________________________________________________________
dropout_155 (Dropout)           (None, 7, 7, 128)    0           conv5_27_x1[0][0]                
__________________________________________________________________________________________________
conv5_27_x2_bn (BatchNormalizat (None, 7, 7, 128)    512         dropout_155[0][0]                
__________________________________________________________________________________________________
conv5_27_x2_scale (Scale)       (None, 7, 7, 128)    256         conv5_27_x2_bn[0][0]             
__________________________________________________________________________________________________
relu5_27_x2 (Activation)        (None, 7, 7, 128)    0           conv5_27_x2_scale[0][0]          
__________________________________________________________________________________________________
conv5_27_x2_zeropadding (ZeroPa (None, 9, 9, 128)    0           relu5_27_x2[0][0]                
__________________________________________________________________________________________________
conv5_27_x2 (Conv2D)            (None, 7, 7, 32)     36864       conv5_27_x2_zeropadding[0][0]    
__________________________________________________________________________________________________
dropout_156 (Dropout)           (None, 7, 7, 32)     0           conv5_27_x2[0][0]                
__________________________________________________________________________________________________
concat_5_27 (Concatenate)       (None, 7, 7, 1504)   0           concat_5_26[0][0]                
                                                                 dropout_156[0][0]                
__________________________________________________________________________________________________
conv5_28_x1_bn (BatchNormalizat (None, 7, 7, 1504)   6016        concat_5_27[0][0]                
__________________________________________________________________________________________________
conv5_28_x1_scale (Scale)       (None, 7, 7, 1504)   3008        conv5_28_x1_bn[0][0]             
__________________________________________________________________________________________________
relu5_28_x1 (Activation)        (None, 7, 7, 1504)   0           conv5_28_x1_scale[0][0]          
__________________________________________________________________________________________________
conv5_28_x1 (Conv2D)            (None, 7, 7, 128)    192512      relu5_28_x1[0][0]                
__________________________________________________________________________________________________
dropout_157 (Dropout)           (None, 7, 7, 128)    0           conv5_28_x1[0][0]                
__________________________________________________________________________________________________
conv5_28_x2_bn (BatchNormalizat (None, 7, 7, 128)    512         dropout_157[0][0]                
__________________________________________________________________________________________________
conv5_28_x2_scale (Scale)       (None, 7, 7, 128)    256         conv5_28_x2_bn[0][0]             
__________________________________________________________________________________________________
relu5_28_x2 (Activation)        (None, 7, 7, 128)    0           conv5_28_x2_scale[0][0]          
__________________________________________________________________________________________________
conv5_28_x2_zeropadding (ZeroPa (None, 9, 9, 128)    0           relu5_28_x2[0][0]                
__________________________________________________________________________________________________
conv5_28_x2 (Conv2D)            (None, 7, 7, 32)     36864       conv5_28_x2_zeropadding[0][0]    
__________________________________________________________________________________________________
dropout_158 (Dropout)           (None, 7, 7, 32)     0           conv5_28_x2[0][0]                
__________________________________________________________________________________________________
concat_5_28 (Concatenate)       (None, 7, 7, 1536)   0           concat_5_27[0][0]                
                                                                 dropout_158[0][0]                
__________________________________________________________________________________________________
conv5_29_x1_bn (BatchNormalizat (None, 7, 7, 1536)   6144        concat_5_28[0][0]                
__________________________________________________________________________________________________
conv5_29_x1_scale (Scale)       (None, 7, 7, 1536)   3072        conv5_29_x1_bn[0][0]             
__________________________________________________________________________________________________
relu5_29_x1 (Activation)        (None, 7, 7, 1536)   0           conv5_29_x1_scale[0][0]          
__________________________________________________________________________________________________
conv5_29_x1 (Conv2D)            (None, 7, 7, 128)    196608      relu5_29_x1[0][0]                
__________________________________________________________________________________________________
dropout_159 (Dropout)           (None, 7, 7, 128)    0           conv5_29_x1[0][0]                
__________________________________________________________________________________________________
conv5_29_x2_bn (BatchNormalizat (None, 7, 7, 128)    512         dropout_159[0][0]                
__________________________________________________________________________________________________
conv5_29_x2_scale (Scale)       (None, 7, 7, 128)    256         conv5_29_x2_bn[0][0]             
__________________________________________________________________________________________________
relu5_29_x2 (Activation)        (None, 7, 7, 128)    0           conv5_29_x2_scale[0][0]          
__________________________________________________________________________________________________
conv5_29_x2_zeropadding (ZeroPa (None, 9, 9, 128)    0           relu5_29_x2[0][0]                
__________________________________________________________________________________________________
conv5_29_x2 (Conv2D)            (None, 7, 7, 32)     36864       conv5_29_x2_zeropadding[0][0]    
__________________________________________________________________________________________________
dropout_160 (Dropout)           (None, 7, 7, 32)     0           conv5_29_x2[0][0]                
__________________________________________________________________________________________________
concat_5_29 (Concatenate)       (None, 7, 7, 1568)   0           concat_5_28[0][0]                
                                                                 dropout_160[0][0]                
__________________________________________________________________________________________________
conv5_30_x1_bn (BatchNormalizat (None, 7, 7, 1568)   6272        concat_5_29[0][0]                
__________________________________________________________________________________________________
conv5_30_x1_scale (Scale)       (None, 7, 7, 1568)   3136        conv5_30_x1_bn[0][0]             
__________________________________________________________________________________________________
relu5_30_x1 (Activation)        (None, 7, 7, 1568)   0           conv5_30_x1_scale[0][0]          
__________________________________________________________________________________________________
conv5_30_x1 (Conv2D)            (None, 7, 7, 128)    200704      relu5_30_x1[0][0]                
__________________________________________________________________________________________________
dropout_161 (Dropout)           (None, 7, 7, 128)    0           conv5_30_x1[0][0]                
__________________________________________________________________________________________________
conv5_30_x2_bn (BatchNormalizat (None, 7, 7, 128)    512         dropout_161[0][0]                
__________________________________________________________________________________________________
conv5_30_x2_scale (Scale)       (None, 7, 7, 128)    256         conv5_30_x2_bn[0][0]             
__________________________________________________________________________________________________
relu5_30_x2 (Activation)        (None, 7, 7, 128)    0           conv5_30_x2_scale[0][0]          
__________________________________________________________________________________________________
conv5_30_x2_zeropadding (ZeroPa (None, 9, 9, 128)    0           relu5_30_x2[0][0]                
__________________________________________________________________________________________________
conv5_30_x2 (Conv2D)            (None, 7, 7, 32)     36864       conv5_30_x2_zeropadding[0][0]    
__________________________________________________________________________________________________
dropout_162 (Dropout)           (None, 7, 7, 32)     0           conv5_30_x2[0][0]                
__________________________________________________________________________________________________
concat_5_30 (Concatenate)       (None, 7, 7, 1600)   0           concat_5_29[0][0]                
                                                                 dropout_162[0][0]                
__________________________________________________________________________________________________
conv5_31_x1_bn (BatchNormalizat (None, 7, 7, 1600)   6400        concat_5_30[0][0]                
__________________________________________________________________________________________________
conv5_31_x1_scale (Scale)       (None, 7, 7, 1600)   3200        conv5_31_x1_bn[0][0]             
__________________________________________________________________________________________________
relu5_31_x1 (Activation)        (None, 7, 7, 1600)   0           conv5_31_x1_scale[0][0]          
__________________________________________________________________________________________________
conv5_31_x1 (Conv2D)            (None, 7, 7, 128)    204800      relu5_31_x1[0][0]                
__________________________________________________________________________________________________
dropout_163 (Dropout)           (None, 7, 7, 128)    0           conv5_31_x1[0][0]                
__________________________________________________________________________________________________
conv5_31_x2_bn (BatchNormalizat (None, 7, 7, 128)    512         dropout_163[0][0]                
__________________________________________________________________________________________________
conv5_31_x2_scale (Scale)       (None, 7, 7, 128)    256         conv5_31_x2_bn[0][0]             
__________________________________________________________________________________________________
relu5_31_x2 (Activation)        (None, 7, 7, 128)    0           conv5_31_x2_scale[0][0]          
__________________________________________________________________________________________________
conv5_31_x2_zeropadding (ZeroPa (None, 9, 9, 128)    0           relu5_31_x2[0][0]                
__________________________________________________________________________________________________
conv5_31_x2 (Conv2D)            (None, 7, 7, 32)     36864       conv5_31_x2_zeropadding[0][0]    
__________________________________________________________________________________________________
dropout_164 (Dropout)           (None, 7, 7, 32)     0           conv5_31_x2[0][0]                
__________________________________________________________________________________________________
concat_5_31 (Concatenate)       (None, 7, 7, 1632)   0           concat_5_30[0][0]                
                                                                 dropout_164[0][0]                
__________________________________________________________________________________________________
conv5_32_x1_bn (BatchNormalizat (None, 7, 7, 1632)   6528        concat_5_31[0][0]                
__________________________________________________________________________________________________
conv5_32_x1_scale (Scale)       (None, 7, 7, 1632)   3264        conv5_32_x1_bn[0][0]             
__________________________________________________________________________________________________
relu5_32_x1 (Activation)        (None, 7, 7, 1632)   0           conv5_32_x1_scale[0][0]          
__________________________________________________________________________________________________
conv5_32_x1 (Conv2D)            (None, 7, 7, 128)    208896      relu5_32_x1[0][0]                
__________________________________________________________________________________________________
dropout_165 (Dropout)           (None, 7, 7, 128)    0           conv5_32_x1[0][0]                
__________________________________________________________________________________________________
conv5_32_x2_bn (BatchNormalizat (None, 7, 7, 128)    512         dropout_165[0][0]                
__________________________________________________________________________________________________
conv5_32_x2_scale (Scale)       (None, 7, 7, 128)    256         conv5_32_x2_bn[0][0]             
__________________________________________________________________________________________________
relu5_32_x2 (Activation)        (None, 7, 7, 128)    0           conv5_32_x2_scale[0][0]          
__________________________________________________________________________________________________
conv5_32_x2_zeropadding (ZeroPa (None, 9, 9, 128)    0           relu5_32_x2[0][0]                
__________________________________________________________________________________________________
conv5_32_x2 (Conv2D)            (None, 7, 7, 32)     36864       conv5_32_x2_zeropadding[0][0]    
__________________________________________________________________________________________________
dropout_166 (Dropout)           (None, 7, 7, 32)     0           conv5_32_x2[0][0]                
__________________________________________________________________________________________________
concat_5_32 (Concatenate)       (None, 7, 7, 1664)   0           concat_5_31[0][0]                
                                                                 dropout_166[0][0]                
__________________________________________________________________________________________________
conv5_blk_bn (BatchNormalizatio (None, 7, 7, 1664)   6656        concat_5_32[0][0]                
__________________________________________________________________________________________________
conv5_blk_scale (Scale)         (None, 7, 7, 1664)   3328        conv5_blk_bn[0][0]               
__________________________________________________________________________________________________
relu5_blk (Activation)          (None, 7, 7, 1664)   0           conv5_blk_scale[0][0]            
__________________________________________________________________________________________________
pool5 (GlobalAveragePooling2D)  (None, 1664)         0           relu5_blk[0][0]                  
__________________________________________________________________________________________________
fc6 (Dense)                     (None, 1)            1665        pool5[0][0]                      
__________________________________________________________________________________________________
prob (Activation)               (None, 1)            0           fc6[0][0]                        
==================================================================================================
Total params: 12,802,945
Trainable params: 12,644,545
Non-trainable params: 158,400
__________________________________________________________________________________________________
